MNIST/snapshots/baseline/baseline_epoch_9.pt (torch_old, 88724 bytes, 8 tensors)

conv1.weight f4 [10, 1, 5, 5]
-0.004165584 -0.19034658 -0.18293756 -0.12338599 -0.32432225 0.13609809 -0.059778914 -0.087832585
-0.24932072 -0.28654763 0.12860474 0.16839279 0.1871406 -0.0593157 -0.06790317 0.014625107
0.187 0.24031864 0.45847777 0.22559513 -0.045668032 -0.15515281 -0.05133039 0.03528719
0.083335154 0.082425945 0.4464482 0.017709685 -0.50091124 -0.13159786 0.11776036 0.5530276
0.03242376 -0.46544155 -0.4167679 -0.003427075 0.6989834 -0.20775527 -0.27195877 -0.35134834
0.25182632 0.30132064 0.21059963 -0.15386479 -0.23106675 0.0970069 0.16666071 0.30851826
0.10731157 0.04300854 -0.31891987 -0.26959348 -0.0014556403 0.14141102 0.31019995 -0.17826921
-0.18579191 0.07935854 0.4736869 0.09358268 -0.30582127 0.1847113 0.5952342 0.41403282
-0.354897 0.028416818 0.34978795 0.47813419 -0.20955803 -0.39498478 0.20007727 0.11453505
-0.0076011317 -0.34425893 -0.25671905 0.118176155 0.32498965 0.34659532 0.013713931 0.24277969
-0.2499232 -0.06342527 0.19334419 0.13239291 0.24225622 -0.21764603 -0.2807262 0.07136569
0.010080913 0.14140618 0.0019877104 -0.35209647 -0.29244888 -0.16487902 -0.3017755 -0.06771762
-0.010190727 -0.23589396 -0.30168954 -0.1974973 0.25129482 -0.017795727 -0.08276066 -0.22899514
-0.40360668 -0.114238374 0.3781425 -0.12096641 -0.19725181 -0.15356442 -0.17995536 0.51633024
0.4791813 -0.01991007 0.10914428 0.056302723 0.33676606 0.41138455 0.27969325 0.073655285
-0.43164042 -0.34868658 -0.0023627446 0.0036422028 0.11439051 -0.23870598 -0.46915168 -0.32497123
0.09532098 0.32503244 -0.25755486 -0.020351442 0.3682053 0.55627155 0.11483048 0.26090133
0.2171789 0.13159274 0.030024024 -0.21898766 0.03423687 -0.054915145 -0.26483488 0.106676765
0.14239441 -0.056906365 -0.030824019 0.034417607 0.24002106 0.2634062 -0.07571348 0.19708738
-0.03404811 -0.036469277 -0.2573039 -0.17150809 -0.14796594 -0.11084919 0.13207512 -0.09284178
-0.17594136 0.05798952 0.06922795 0.14057213 -0.11847777 0.055612326 -0.070567116 -0.053118072
-0.14210537 -0.0883926 -0.018880364 0.09186934 0.050625607 0.11535249 0.28005126 0.07441342
0.22993161 0.24090244 -0.07855245 0.22975944 -0.2927726 -0.22291146 -0.40930608 -0.3850279
-0.3823853 0.101191804 -0.31655753 -0.4095763 -0.2635136 -0.27985102 0.3365062 0.1593711
0.11126702 0.16867836 0.29702255 -0.0059308736 0.38458797 0.5794249 0.47736314 0.011138606
-0.08931075 -0.22113495 0.15672244 0.077079244 0.3053637 -0.13765027 -0.15930553 -0.13322191
0.15618229 0.38479605 -0.20701784 -0.18931921 -0.35815015 0.18529066 0.52835953 -0.13088538
-0.13110332 -0.31334287 -0.022438297 0.54878235 -0.42543298 -0.10833537 -0.361736 -0.19516066
0.341762 -0.042596508 0.10058376 0.36835703 0.4368708 0.5261239 -0.032287158 -0.10159507
0.32771415 0.13029961 0.13384525 -0.056654517 -0.16307539 0.08670664 0.120823145 -0.17618026
-0.31151098 -0.16351625 -0.1673132 -0.24780874 -0.29181057 -0.13331021 -0.40625176 -0.4503182
-0.3663808 0.023435427
00000000: 747f 88bb 37ea 42be fc53 3bbe cbb1 fcbd
00000010: 910d a6be 4c5d 0b3e bcda 74bd 92e1 b3bd
00000020: ee4d 7fbe 5fb6 92be f6b0 033e 296f 2c3e
00000030: c9a1 3f3e 05f5 72bd d110 8bbd 259e 6f3c
00000040: ee7c 3f3e 1716 763e 99bd ea3e 6902 673e
00000050: 670e 3bbd 61e0 1ebe d13f 52bd 4d89 103d
00000060: 9fab aa3d efce a83d dc94 e43e e713 913c
00000070: b83b 00bf 97c1 06be 582c f13d 3793 0d3f
00000080: c7ce 043d 5b4e eebe 9a62 d5be c798 60bb
00000090: 93f0 323f ccbd 54be 2e3e 8bbe eee3 b3be
000000a0: 61ef 803e b346 9a3e 6ea7 573e bb8e 1dbe
000000b0: c39c 6cbe 8eab c63d 1ba9 2a3e 1bf6 9d3e
000000c0: 2bc6 db3d b929 303d 7749 a3be 2808 8abe
000000d0: 2fcb beba 0dce 103e 87d2 9e3e 348c 36be
000000e0: 3c40 3ebe bb86 a23d 1787 f23e 47a8 bf3d
000000f0: 9b94 9cbe f624 3d3e 4561 183f 1cfc d33e
00000100: 0fb5 b5be 63ca e83c 6817 b33e 01ce f43e
00000110: 6196 56be 723b cabe 0ee1 4c3e 5a91 ea3d
00000120: ea12 f9bb b542 b0be ae70 83be 5706 f23d
00000130: 0b65 a63e f174 b13e 65b0 603c 3d9b 783e
00000140: deeb 7fbe 1ce5 81bd 05fc 453e 0292 073e
00000150: 0412 783e 9ade 5ebe 58bb 8fbe 2d28 923d
00000160: 6a2a 253c c8cc 103e 3f44 023b fd45 b4be
00000170: dcbb 95be 0cd6 28be 5182 9abe 89af 8abd
00000180: 02f7 26bc 308e 71be 0d77 9abe bb3c 4abe
00000190: b7a9 803e 58c8 91bc 6c7e a9bd b47d 6abe
000001a0: 89a5 cebe cff5 e9bd e59b c13e 3dbd f7bd
000001b0: 61fc 49be fe3f 1dbe 3846 38be 382e 043f
000001c0: 4057 f53e 711a a3bc 0987 df3d af9d 663d
000001d0: 9a6c ac3e ffa0 d23e f433 8f3e 95d8 963d
000001e0: f9ff dcbe 0c87 b2be 47d8 1abb 06b2 6e3b
000001f0: 9245 ea3d 576f 74be a634 f0be a162 a6be
00000200: a537 c33d a76a a63e 3bde 83be 11b8 a6bc
00000210: 6885 bc3e d067 0e3f 3e2c eb3d dc94 853e
00000220: 2564 5e3e 3fc0 063e f1f4 f53c 4d3e 60be
00000230: f63b 0c3d b4ee 60bd 7098 87be 5979 da3d
00000240: d7cf 113e a616 69bd a782 fcbc 7af9 0c3d
00000250: 15c8 753e 2ddd 863e ab0f 9bbd 46d1 493e
00000260: 0876 0bbd cf60 15bd 56bd 83be d19f 2fbe
00000270: 6284 17be e604 e3bd b33e 073e d523 bebd
00000280: f929 34be 6b86 6d3d 62c7 8d3d 24f2 0f3e
00000290: 79a4 f2bd c0c9 633d 7e85 90bd 5692 59bd
000002a0: 1284 11be 2e07 b5bd feaa 9abc fe25 bc3d
000002b0: cc5c 4f3d ed3d ec3d e162 8f3e 1066 983d
000002c0: 3173 6b3e 21af 763e 1be0 a0bd 0f46 6b3e
000002d0: 4ae6 95be e742 64be 9190 d1be 6022 c5be
000002e0: 02c8 c3be a63d cf3d d413 a2be fcb3 d1be
000002f0: 41eb 86be a248 8fbe 8a4a ac3e 2d32 233e
00000300: f7df e33d 05ba 2c3e 5713 983e c657 c2bb
00000310: b7e8 c43e 3155 143f f168 f43e b37e 363c
00000320: 8ee8 b6bd 3371 62be d97b 203e b9db 9d3d
00000330: a258 9c3e 31f4 0cbe fd20 23be 536b 08be
00000340: 40ee 1f3e fd03 c53e 7cfc 53be e5dc 41be
00000350: 755f b7be d6bc 3d3e 9242 073f d106 06be
00000360: f33f 06be 7a6e a0be 85d0 b7bc 007d 0c3f
00000370: 5ad2 d9be efde ddbd 7635 b9be 32d8 47be
00000380: 6efb ae3e ad79 2ebd dcfe cd3d 4b99 bc3e
00000390: 88ad df3e 0eb0 063f 8a3f 04bd 1311 d0bd
000003a0: 26ca a73e 436d 053e bb0e 093e 910e 68bd
000003b0: 3cfd 26be 4093 b13d 2072 f73d 9968 34be
000003c0: 5e7e 9fbe ce70 27be 2754 2bbe 93c1 7dbe
000003d0: 3268 95be 7982 08be 3b00 d0be 1b90 e6be
000003e0: 4496 bbbe a7fb bf3c

conv1.bias f4 [10]
0.019662041 -0.3697972 -0.39063412 0.1700722 -0.3365152 -0.24796905 0.099524744 -0.10226151
-0.13256153 0.04172226
00000000: 4a12 a13c 0f56 bdbe 3201 c8be 6827 2e3e
00000010: b84b acbe 99eb 7dbe a1d3 cb3d 7c6e d1bd
00000020: 36be 07be f6e4 2a3d

conv2.weight f4 [20, 10, 5, 5]
0.0036680917 -0.015298664 -0.12980205 0.041689664 0.07327797 -0.067651756 -0.026626669 -0.13173081
-0.0055067013 -0.028270638 -0.03587522 -0.07037275 -0.08367673 0.034590162 -0.008445242 -0.091938965
-0.09838774 -0.035360478 -0.0037781694 0.005396594 -0.016214347 0.018070277 0.08801724 0.016300116
-0.053095136 -0.021206113 -0.19669192 -0.18921062 -0.0068037636 0.1855922 -0.025749836 -0.22164004
-0.08077733 0.009112352 0.069134235 -0.061413903 -0.11327967 0.059558984 0.009752535 -0.036362816
-0.084856704 0.066507384 0.18491201 0.01036832 -0.00013646312 -0.014664275 0.06544011 0.10872774
-0.005567212 0.055411335 0.08764038 -0.05764428 -0.012346943 0.040023405 0.11579179 -0.06950807
0.014686969 0.12441781 0.18785489 0.03811634 -0.01454703 0.092156634 0.061935645 -0.008255906
-0.023575442 -0.08434167 -0.05438541 -0.15368924 -0.21680762 -0.08629965 -0.011948524 -0.13036972
-0.1833926 -0.12474583 -0.06397833 0.02877142 -0.052041225 -0.06098012 -0.04746282 -0.07163336
-0.055106297 -0.10405291 -0.13195941 -0.03143731 -0.065586835 -0.029983418 -0.08845258 -0.090733215
-0.08489457 -0.016412606 0.07860445 -0.0020852496 -0.037369583 0.00027225658 0.14127588 0.007461469
0.0734467 0.03375222 0.028226785 0.032244883 0.052952744 -0.10275572 -0.06745962 0.03670763
0.25633073 -0.054728482 -0.14298894 -0.025924549 0.065680884 0.09666075 -0.09300554 -0.010534989
0.035286218 0.0133099295 0.057321128 -0.12090031 0.015878294 0.2180595 0.10833232 0.035022605
-0.11851079 -0.101776086 0.013447416 0.0071135303 -0.15769778 0.11346276 0.05457818 0.059810568
0.05946168 0.030264687 0.0060380283 0.12248136 0.19878724 0.16198647 0.09708122 0.09257051
0.24128759 0.16968837 0.12585087 -0.021041976 -0.070490174 0.10918478 0.032648813 -0.09658446
-0.09652439 -0.11682511 -0.059365317 -0.11386746 -0.034891114 -0.17493737 -0.03618326 -0.008017575
-0.008213201 -0.032369148 0.02130981 0.0050284914 -0.061795812 0.053077552 -0.06252066 -0.03018388
-0.060039498 0.03852705 0.0036195258 0.026502032 -0.031207928 0.006960772 -0.026940186 -0.05255638
0.0058952933 -0.04039179 -0.005719975 -0.02545689 0.022394326 0.012097056 -0.028879892 -0.03732179
0.066705756 -0.047197144 -0.04223023 0.072615944 -0.010940493 0.05176846 -0.15213443 0.014662592
0.034882203 -0.057301216 -0.17696238 -0.10851035 -0.03456021 0.02380179 -0.038311187 -0.05694221
0.08300019 0.06995259 0.06787613 0.16024983 -0.025418768 0.013368055 0.033128105 -0.15462859
-0.016541902 -0.07137839 -0.027842095 -0.035037324 -0.069339916 0.01594865 -0.047152296 -0.12088128
-0.056082185 -0.099303275 0.10969623 0.07565887 0.075879484 0.03238249 0.027916208 0.15461268
0.06325651 0.10163037 0.061053988 -0.036471203 0.01673625 0.017674634 0.06905559 0.0045324066
-0.058048327 0.14038318 -0.009781813 -0.0067274133 -0.078426816 -0.050260704 0.009861424 -0.08052128
-0.062249534 -0.1446182 -0.015587266 0.06463599 0.019532073 -0.12597816 -0.086748265 0.03930929
0.010122287 -0.09160155 -0.049252693 0.02378325 0.10987527 -0.14561276 -0.090064965 -0.0146388095
0.09730767 0.0143409725 -0.037049625 0.034400757 -0.09101967 0.0047839745 0.002935202 -0.05906274
00000000: 5e64 703b 3fa7 7abc d4ea 04be c8c2 2a3d
00000010: c312 963d 018d 8abd 2c20 dabc 71e4 06be
00000020: 8f71 b4bb d397 e7bc e5f1 12bd 971f 90bd
00000030: b55e abbd 6aae 0d3d ea5d 0abc 7f4a bcbd
00000040: 837f c9bd 26d6 10bd 2a9b 77bb e9d5 b03b
00000050: f3d3 84bc 1e08 943c 6242 b43d d287 853c
00000060: 497a 59bd 71b8 adbc 9b69 49be 6ec0 41be
00000070: 1bf2 debb e20b 3e3e 52f1 d2bc 9bf5 62be
00000080: 966e a5bd f94b 153c 4096 8d3d 258d 7bbd
00000090: 2cff e7bd 1ff4 733d 19c9 1f3c 2df1 14bd
000000a0: 5ac9 adbd 0635 883d 9359 3d3e e3df 293c
000000b0: 8a17 0fb9 6d42 70bc 7705 863d a6ac de3d
000000c0: 296d b6bb fff6 623d cd7c b33d 691c 6cbd
000000d0: d54a 4abc 95ef 233d 3f24 ed3d 3f5a 8ebd
000000e0: 9da1 703c c4ce fe3d 085d 403e e11f 1c3d
000000f0: ab56 6ebc 9ebc bc3d 3bb0 7d3d c843 07bc
00000100: 4921 c1bc 53bb acbd 3cc3 5ebd b660 1dbe
00000110: d102 5ebe dfbd b0bd bec3 43bc a47f 05be
00000120: 45cb 3bbe be7a ffbd 1207 83bd 0ab2 eb3c
00000130: 2e29 55bd 4ac6 79bd 6068 42bd 83b4 92bd
00000140: 24b7 61bd b119 d5bd 5e20 07be 69c4 00bd
00000150: 6452 86bd c99f f5bc a026 b5bd 56d2 b9bd
00000160: 34dd adbd bb73 86bc 5ffb a03d afa8 08bb
00000170: d910 19bd a9bd 8e39 a0aa 103e 577f f43b
00000180: 396b 963d c53f 0a3d dc3b e73c 3613 043d
00000190: fae4 583d 9771 d2bd 4528 8abd bd5a 163d
000001a0: c83d 833e f92a 60bd b16b 12be b85f d4bc
000001b0: b383 863d 12f6 c53d b079 bebd f29a 2cbc
000001c0: 4888 103d e411 5a3c 8fc9 6a3d 959a f7bd
000001d0: 3213 823c fd4a 5f3e 56dd dd3d dd73 0f3d
000001e0: c9b5 f2bd fb6f d0bd 8d52 5c3c 9e18 e93b
000001f0: 877b 21be 2a5f e83d 5f8d 5f3d edfb 743d
00000200: 178e 733d a6ed f73c a7da c53b 82d7 fa3d
00000210: e28e 4b3e c8df 253e 85d2 c63d 9c95 bd3d
00000220: 1814 773e cac2 2d3e 0ddf 003e 3960 acbc
00000230: 275d 90bd 459c df3d c3ba 053d 13ce c5bd
00000240: 94ae c5bd 0142 efbd 0c29 73bd 5833 e9bd
00000250: fce9 0ebd c822 33be e634 14bd 265c 03bc
00000260: a990 06bc 8395 04bd e991 ae3c 0bc6 a43b
00000270: 9b1d 7dbd d967 593d d50a 80bd 2f44 f7bc
00000280: faeb 75bd 8ace 1d3d 9135 6d3b ca1a d93c
00000290: c5a7 ffbc 3017 e43b aab1 dcbc 5c45 57bd
000002a0: 4e2d c13b dd71 25bd a16e bbbb f88a d0bc
000002b0: 4e74 b73c bb32 463c 8695 ecbc bcde 18bd
000002c0: 079d 883d cb51 41bd 9bf9 2cbd abb7 943d
000002d0: c13f 33bc 2a0b 543d 21c9 1bbe 5e3b 703c
000002e0: a4e0 0e3d aeb4 6abd a035 35be ad3a debd
000002f0: 028f 0dbd f9fb c23c 31ec 1cbd 3c3c 69bd
00000300: 01fc a93d 4e43 8f3d a402 8b3d 8818 243e
00000310: 053b d0bc b005 5b3c 56b1 073d f556 1ebe
00000320: e282 87bc d52e 92bd 1b15 e4bc 4c83 0fbd
00000330: 1602 8ebd bea6 823c c422 41bd 9b90 f7bd
00000340: 6fb6 65bd 845f cbbd 6ba8 e03d 0af3 9a3d
00000350: b466 9b3d 80a3 043d 88b0 e43c c952 1e3e
00000360: a18c 813d 9523 d03d bf13 7a3d d462 15bd
00000370: 761a 893c 65ca 903c 046d 8d3d 9584 943b
00000380: 15c4 6dbd 9cc0 0f3e e643 20bc a271 dcbb
00000390: 3d9e a0bd 2bde 4dbd cf91 213c 57e8 a4bd
000003a0: 5ef9 7ebd cb16 14be bb61 7fbc e05f 843d
000003b0: ba01 a03c 6b00 01be 13a9 b1bd c702 213d
000003c0: f3d7 253c 9899 bbbd 31bd 49bd 17d5 c23c
000003d0: 4906 e13d 831b 15be fb73 b8bd 9ed7 6fbc
000003e0: 3e49 c73d 66f6 6a3c 59c1 17bd cfe7 0c3d
000003f0: 8568 babd e3c2 9c3b 855c 403b c6eb 71bd

conv2.bias f4 [20]
-0.06836188 -0.039149113 0.02047542 -0.08972736 -0.067437306 0.07465895 -0.04243595 -0.059833772
-0.058526773 -0.04971323 0.11910449 -0.07550471 -0.0784257 -0.027345838 -0.05779001 -0.13388012
-0.036469832 -0.1385663 -0.07145491 0.14198197
00000000: 5001 8cbd d25a 20bd 11bc a73c fac2 b7bd
00000010: 921c 8abd cbe6 983d 52d1 2dbd 4214 75bd
00000020: c5b9 6fbd 1aa0 4bbd 0eed f33d 37a2 9abd
00000030: a79d a0bd 6104 e0bc 38b5 6cbd df17 09be
00000040: 6461 15bd 53e4 0dbe f456 92bd b963 113e

fc1.weight f4 [50, 320]
-0.1511773 -0.028553091 -0.0010845598 -0.010803988 -0.052202355 -0.016754398 0.08893696 0.04999003
0.021488987 0.11033948 0.07381207 0.063328646 0.019896455 -0.056394584 0.08963506 0.027238773
0.02596669 0.09918094 -0.00012781555 0.06129552 -0.03874087 0.0017148142 0.096585184 0.08209118
0.12994191 -0.047673963 0.02210108 0.032503054 0.028506037 -0.13710575 -0.04745646 -0.025889441
-0.03131472 0.032307427 -0.08585177 -0.093571216 -0.093745284 0.0065050917 0.06387453 0.13707685
0.02154407 0.062007505 -0.04235979 0.010560044 -0.03252714 -0.024539607 0.17443857 0.0029029245
0.030433813 0.08160843 0.051635582 0.054151718 0.028935106 0.07355739 -0.04212296 -0.025783824
-0.0077850614 -0.062982775 -0.121105865 -0.06083033 -0.06609097 -0.066206306 -0.09377836 -0.16856591
-0.024054136 -0.034271605 -0.016082535 -0.016342413 -0.14106867 0.038722605 -0.0117656 0.0055799433
0.025218097 0.015162099 -0.047720864 0.044833828 -0.002722539 0.08359409 0.01621976 -0.0152896
-0.117244124 -0.016949402 0.026526 -0.03794567 -0.041508373 0.114895 -0.040653225 -0.0005612315
0.02993801 0.07550827 -0.016098721 0.027970588 0.070778996 0.14163114 0.12802772 0.041163694
-0.05275146 0.0683946 0.10246596 0.010330123 0.10632748 0.017069038 -0.097150765 -0.032312505
0.008695287 -0.06541304 0.05064249 -0.02433754 0.120957375 0.0025044258 0.01283858 -0.069678396
0.047134228 -0.091295674 0.036072068 0.104936354 0.01120864 -0.044764526 0.08704133 0.104206115
0.025550481 -0.0100553045 -0.033980884 0.034927275 -0.026842875 -0.099378124 0.03659413 -0.024878789
-0.033219527 0.0057558953 0.06445502 0.026873728 0.042335667 0.02830068 0.049835425 -0.006130639
0.052289218 -0.05622044 0.049158383 0.020717505 -0.094703846 -0.08114358 -0.1270405 -0.08265625
-0.09935001 -0.09511809 -0.07077093 0.049010806 0.005529604 0.014778069 0.06286066 -0.07016371
0.0821082 0.033391528 0.012136782 0.06889638 0.10732226 0.13825008 0.098338336 0.002178054
-0.059359033 0.0003045813 -0.05387389 -0.007497078 0.059957407 -0.013659063 0.08102647 -0.059522927
-0.049096376 0.013816947 0.0388791 0.038001385 0.055009045 0.14381033 0.1539404 -0.04478404
-0.09762722 -0.1667845 -0.11685678 -0.074785635 -0.11834441 -0.026688427 0.053849872 -0.02674235
0.03603125 0.058343098 0.020623416 0.013532728 0.054601043 0.03944527 0.054054968 0.12014005
-0.0024269586 0.08539281 0.04354635 -0.011305919 0.013108865 0.054294832 0.020421376 0.12264744
0.04366158 -0.11627071 -0.11887676 -0.0580215 0.026044479 -0.024937471 -0.053763956 -0.0036123588
-0.042996787 0.038715217 0.11066844 0.14573692 0.12460536 0.046910375 -0.086543456 -0.018096548
-0.034587994 -0.05542707 -0.0067212316 -0.10501226 -0.12998319 -0.11412834 -0.16002283 -0.19813713
0.03987183 0.015455648 -0.09639201 -0.07345532 0.022321682 -0.04446852 -0.013117711 -0.002796103
-0.012547014 0.045661397 0.093738854 -0.049367 0.049168643 0.027752362 0.012686004 -0.05768024
0.07591352 0.065723844 -0.03696994 -0.029206537 0.012575071 0.025763422 0.0053299027 0.110698454
-0.007506616 -0.021019993 0.04363076 0.01719957 0.016138801 -0.048699137 -0.037511144 -0.11143275
00000000: 39ce 1abe 2ce8 e9bc ca27 8eba 3603 31bc
00000010: 23d2 55bd 8540 89bc 9524 b63d 58c2 4c3d
00000020: ac09 b03c aaf9 e13d c82a 973d 73b2 813d
00000030: e4fd a23c 02fe 66bd 9692 b73d d923 df3c
00000040: 19b8 d43c 601f cb3d 3a06 06b9 0311 7b3d
00000050: bfae 1ebd 9ec3 e03a 74ce c53d 6c1f a83d
00000060: 7e0f 053e c645 43bd 530d b53c ec21 053d
00000070: 7e85 e93c 7365 0cbe b461 42bd 1816 d4bc
00000080: dd43 00bd cb54 043d 0ed3 afbd 44a2 bfbd
00000090: 87fd bfbd aa28 d53b a6d0 823d e05d 0c3e
000000a0: 317d b03c 95fb 7d3d 7681 2dbd 0904 2d3c
000000b0: 2e3b 05bd 4907 c9bc 06a0 323e fe3e 3e3b
000000c0: 5550 f93c 5222 a73d d57f 533d 31ce 5d3d
000000d0: 5109 ed3c 42a5 963d 2089 2cbd 9938 d3bc
000000e0: d419 ffbb 1dfd 80bd 5a06 f8bd 3929 79bd
000000f0: b45a 87bd 2c97 87bd de0e c0bd 8b9c 2cbe
00000100: 2e0d c5bc 6260 0cbd 85bf 83bc 86e0 85bc
00000110: 4e74 10be 989b 1e3d 81c4 40bc f5d7 b63b
00000120: 2f96 ce3c 746a 783c f476 43bd ada3 373d
00000130: a06c 32bb 6133 ab3d 4ddf 843c 3b81 7abc
00000140: b01d f0bd 79d9 8abc 0e4d d93c eb6c 1bbd
00000150: af04 2abd 124e eb3d ff83 26bd 9c1f 13ba
00000160: 8f40 f53c 14a4 9a3d 77e1 83bc 9322 e53c
00000170: 94f4 903d c107 113e b319 033e 439b 283d
00000180: ea11 58bd 7812 8c3d acd9 d13d ad3f 293c
00000190: 39c2 d93d 5ed4 8b3c fbf6 c6bd 1e5a 04bd
000001a0: ad76 0e3c 46f7 85bd 806e 4f3d 855f c7bc
000001b0: 80b8 f73d 4b21 243b e858 523c 8cb3 8ebd
000001c0: d20f 413d 3af9 babd 4ec0 133d dfe8 d63d
000001d0: 72a4 373c 025b 37bd ba42 b23d 046a d53d
000001e0: 3e4f d13c 01bf 24bc 8a2f 0bbd e70f 0f3d
000001f0: 97e5 dbbc c286 cbbd bae3 153d 9ace cbbc
00000200: 3311 08bd f39b bc3b fe00 843d 4b26 dc3c
00000210: 2a68 2d3d d4d6 e73c 3b20 4c3d 87e3 c8bb
00000220: 382d 563d 6747 66bd 4d5a 493d c2b7 a93c
00000230: 17f4 c1bd 9b2e a6bd e816 02be ae47 a9bd
00000240: 0578 cbbd 46cd c2bd 59f0 90bd 8ebf 483d
00000250: ae31 b53b b71f 723c 17bd 803d feb1 8fbd
00000260: 5828 a83d 8ec5 083d 5ad9 463c 8c19 8d3d
00000270: c6cb db3d 6e91 0d3e 9c65 c93d afbd 0e3b
00000280: 7522 73bd 36b0 9f39 deaa 5cbd 0caa f5bb
00000290: e695 753d 43ca 5fbc 35f1 a53d 50ce 73bd
000002a0: 4819 49bd 7a60 623c b13f 1f3d 57a7 1b3d
000002b0: 2a51 613d 0443 133e 8da2 1d3e 786f 37bd
000002c0: c8f0 c7bd 8ec9 2abe 9c52 efbd 3629 99bd
000002d0: 8e5e f2bd b0a1 dabc af91 5c3d c612 dbbc
000002e0: 8195 133d 2cf9 6e3d 70f2 a83c 60b8 5d3c
000002f0: 58a5 5f3d 5d91 213d be68 5d3d fd0b f63d
00000300: 9c0d 1fbb 6de2 ae3d a85d 323d 763c 39bc
00000310: 91c6 563c 4264 5e3d bb4a a73c 952e fb3d
00000320: 7cd6 323d 571f eebd a975 f3bd f4a7 6dbd
00000330: 3b5b d53c ab49 ccbc 9837 5cbd 53bd 6cbb
00000340: 661d 30bd d993 1e3d 23a6 e23d 0f3c 153e
00000350: 1831 ff3d 1825 403d b23d b1bd 363f 94bc
00000360: 24ac 0dbd 7f07 63bd c73d dcbb ab10 d7bd
00000370: 501a 05be 1ebc e9bd 06dd 23be 76e4 4abe
00000380: a550 233d b039 7d3c 2d69 c5bd be6f 96bd
00000390: f6db b63c 9f24 36bd abeb 56bc d33e 37bb
000003a0: fe91 4dbc 7207 3b3d 28fa bf3d 0d35 4abd
000003b0: 0f65 493d ec58 e33c f5d8 4f3c 1e42 6cbd
000003c0: 8c78 9b3d 399a 863d cb6d 17bd 8c42 efbc
000003d0: ac07 4e3c d00d d33c 77a6 ae3b dfb5 e23d
000003e0: 0ffa f5bb 1f32 acbc 2bb6 323d 1de6 8c3c
000003f0: 8535 843c bf78 47bd 49a5 19bd db36 e4bd

fc1.bias f4 [50]
0.14365113 0.121321626 0.019725109 0.06718852 0.043670025 0.07149109 -0.021292191 -0.010992612
0.08201568 0.02229241 0.05797478 0.13550934 -0.035382383 0.04404437 0.01629236 -0.0062216963
0.14785513 0.067511216 0.13050552 0.060022485 0.064344935 0.08462163 0.015805788 0.12621318
0.11124535 0.020406453 0.056500405 0.12421812 0.015991595 0.0047956114 0.106800765 0.062043898
0.1112009 0.026602158 0.045652743 0.14991985 0.045249652 -0.018201202 0.11643514 0.0001835181
0.050255317 0.13951975 0.09569598 -0.063398376 0.06441335 0.03557324 0.007191687 -0.0058701
0.026405336 0.052058816
00000000: 4819 133e 7977 f83d 8d96 a13c 239a 893d
00000010: 57df 323d ec69 923d f66c aebc 5b1a 34bc
00000020: d6f7 a73d 929e b63c f776 6d3d f6c2 0a3e
00000030: 1eed 10bd df67 343d 8e77 853c 5fdf cbbb
00000040: 5667 173e 5243 8a3d 3da3 053e 23da 753d
00000050: 47c7 833d 1b4e ad3d 247b 813c 073e 013e
00000060: 9ad4 e33d 6f2b a73c f86c 673d 1266 fe3d
00000070: ce00 833c 8124 9d3b 5cba da3d be21 7e3d
00000080: 4cbd e33d c5ec d93c 5ffe 3a3d 9784 193e
00000090: b357 393d b01a 95bc 8c75 ee3d c46e 4039
000000a0: 85d8 4d3d 44de 0e3e 41fc c33d 02d7 81bd
000000b0: 25eb 833d 3fb5 113d 3ea8 eb3b f859 c0bb
000000c0: 0150 d83c a03b 553d

fc2.weight f4 [10, 50]
0.068310514 -0.0913085 0.083145276 0.031805888 -0.14629364 -0.08917968 -0.36111838 -0.045925517
-0.1597512 -0.1916443 -0.38133517 -0.1644202 0.11789363 0.309464 0.3436336 0.26539728
0.17167442 0.15365319 0.11112419 0.16511585 -0.13401975 -0.12034616 0.06607944 -0.27645102
-0.20281841 -0.4019145 -0.16430795 -0.31438103 0.0655665 0.42217046 -0.23173952 -0.06326235
0.5319548 0.3638609 -0.12083506 0.21850225 -0.00675506 0.047428943 0.15712853 -0.26910996
-0.2798115 -0.51393616 0.20095238 0.05931316 0.1190348 0.29769057 -0.08338049 0.060647964
-0.059197754 -0.008753636 0.1924774 0.2675657 -0.24089612 0.33837512 0.070655786 0.3000125
-0.29329857 0.027967962 -0.048267893 -0.16384004 0.42781052 0.35956958 0.020530699 -0.026112113
0.024102598 -0.4387801 0.2693561 0.13737096 -0.3877203 -0.110386014 -0.28778058 0.1368377
0.13167454 0.2422012 0.23191175 -0.26182508 -0.529143 0.3166846 0.1074217 0.12235378
0.26455018 0.051750127 -0.26952794 -0.08735431 0.37734732 0.046177454 -0.4844854 -0.21146193
0.21152034 0.0163382 -0.17325586 0.18347889 -0.25170156 -0.2895032 0.42686242 -0.19569933
-0.11238556 0.46620703 -0.35011482 0.09058921 -0.34738892 -0.30254972 -0.15780285 -0.16011044
0.055629376 0.44340342 0.22398886 -0.18963611 0.44769952 0.17834088 -0.15264891 0.06827199
0.0793209 0.3159747 -0.010377159 0.058661804 -0.1547135 -0.17999788 -0.24483941 -0.3063634
-0.08423253 0.27750275 -0.09482467 -0.25674462 -0.17952958 -0.1381633 -0.21671996 0.19261123
-0.28433093 0.023600373 -0.04741424 -0.12691851 0.20302826 -0.32654682 -0.012214993 0.35450894
0.15861483 -0.19077857 0.07566689 -0.04555167 0.23563226 0.22060774 -0.21832664 -0.08596853
0.222082 0.17914967 -0.076075435 0.10199447 -0.34590837 0.5330373 -0.062007315 0.29064244
0.16904137 -0.19146267 -0.107592896 -0.16601062 0.20050454 0.26147112 -0.012571678 -0.056876767
-0.06329385 0.41781288 -0.19002447 -0.06539758 0.021250987 0.028464464 -0.09110631 0.12400951
-0.21361093 0.47351798 0.17342426 0.32142925 -0.07339624 -0.23794721 -0.19968449 -0.26006803
0.28428727 -0.34885198 0.1443003 -0.36153013 -0.51926255 0.2783986 -0.28865907 0.11104909
0.09588757 -0.03406103 0.08223999 0.27187327 -0.26824227 0.18203996 0.36788905 0.48948282
-0.23497455 0.20168832 -0.08082141 0.038163107 -0.12879428 -0.17878874 -0.2105952 0.25485638
-0.1471115 0.098556966 -0.008971059 0.19358967 0.014248839 0.18375531 0.2074834 -0.19206496
-0.22773312 -0.08860186 0.23739684 -0.13651036 0.34613538 -0.21939118 -0.10871116 0.2981879
-0.38726816 -0.112754226 -0.10046307 -0.33059794 -0.38947716 -0.2970819 0.36859304 0.24539344
0.40271962 0.40028542 0.15260118 0.07196596 -0.014938783 -0.042219777 0.23607564 0.14079888
-0.16519484 -0.26379955 -0.301353 -0.23710093 0.020300502 0.15320276 0.20545857 -0.08033761
-0.37012318 -0.14038202 -0.04124784 -0.21217737 -0.23280138 0.13508038 -0.19529743 -0.14463209
0.43007043 -0.1455653 0.26105604 -0.019141145 -0.21295226 -0.24482757 0.21978602 0.003152366
00000000: 62e6 8b3d f3ff babd 1248 aa3d e446 023d
00000010: 00ce 15be d6a3 b6bd 82e4 b8be 651c 3cbd
00000020: d295 23be 673e 44be 5d3e c3be c55d 28be
00000030: 3772 f13d 1172 9e3e bef0 af3e 27e2 873e
00000040: 6bcb 2f3e 4357 1d3e 1495 e33d 2114 293e
00000050: 793c 09be 0c78 f6bd a854 873d fd8a 8dbe
00000060: a1af 4fbe bdc7 cdbe 5840 28be 8df6 a0be
00000070: bb47 863d ba26 d83e 204d 6dbe b18f 81bd
00000080: 312e 083f fa4b ba3e 5f78 f7bd 0ebf 5f3e
00000090: 8d59 ddbb da44 423d 4de6 203e c8c8 89be
000000a0: 7443 8fbe 5291 03bf 76c6 4d3e 5bf2 723d
000000b0: 84c8 f33d e66a 983e 64c3 aabd 006a 783d
000000c0: 5879 72bd 696b 0fbc cc18 453e 5ffe 883e
000000d0: 79ad 76be 813f ad3e fbb3 903d 3d9b 993e
000000e0: 3b2b 96be 111d e53c 8eb4 45bd afc5 27be
000000f0: fb09 db3e 8119 b83e ff2f a83c 12e9 d5bc
00000100: d072 c53c c9a7 e0be 0be9 893e f9aa 0c3e
00000110: 4683 c6be 1012 e2bd fa57 93be 2f1f 0c3e
00000120: b1d5 063e 9703 783e 467a 6d3e f00d 86be
00000130: ea75 07bf 7c24 a23e e9ff db3d 9e94 fa3d
00000140: 1f73 873e f1f7 533d 91ff 89be d1e6 b2bd
00000150: ab33 c13e 9224 3d3d 780e f8be 7a89 58be
00000160: ca98 583e b0d7 853c fc69 31be e4e1 3b3e
00000170: 07df 80be c339 94be b68d da3e 6865 48be
00000180: 672a e6bd b0b2 ee3e 4042 b3be d686 b93d
00000190: f6dc b1be cce7 9abe 1297 21be fef3 23be
000001a0: a1db 633d c605 e33e 565d 653e f82f 42be
000001b0: df38 e53e fe9e 363e ff4f 1cbe 2fd2 8b3d
000001c0: ff72 a23d 70c7 a13e f604 2abc 5c47 703d
000001d0: 376d 1ebe 5d51 38be 2fb7 7abe aadb 9cbe
000001e0: 1b82 acbd d714 8e3e 7033 c2bd 0874 83be
000001f0: 9ad6 37be ae7a 0dbe d6eb 5dbe e13b 453e
00000200: d393 91be 9255 c13c 6f35 42bd edf6 01be
00000210: a4e6 4f3e 2531 a7be 6521 48bc 3282 b53e
00000220: ed6b 223e 755b 43be 3ef7 9a3d 6394 3abd
00000230: 9549 713e ffe6 613e 0591 5fbe 4510 b0bd
00000240: 7769 633e 0373 373e 70cd 9bbd 7ae2 d03d
00000250: e71a b1be 2275 083f 62fb 7dbd 16cf 943e
00000260: 2e19 2d3e ca0e 44be aa59 dcbd b0fe 29be
00000270: 1051 4d3e 8bdf 853e 70f9 4dbc 9df7 68bd
00000280: 35a0 81bd 92eb d53e c695 42be 2bef 85bd
00000290: 8d16 ae3c 4f2e e93c f295 babd b3f8 fd3d
000002a0: d3bc 5abe f370 f23e 2196 313e 6092 a43e
000002b0: c550 96bd 6fa8 73be 177a 4cbe a327 85be
000002c0: 1a8e 913e ba9c b2be 75c3 133e 7a1a b9be
000002d0: 64ee 04bf 438a 8e3e 1fcb 93be b56d e33d
000002e0: b460 c43d 9483 0bbd 716d a83d f932 8b3e
000002f0: 0d57 89be af68 3a3e f45b bc3e 7e9d fa3e
00000300: 2b9d 70be 6287 4e3e b285 a5bd eb50 1c3d
00000310: a6e2 03be 6514 37be 45a6 57be 897c 823e
00000320: 66a4 16be 3cd8 c93d 59fb 12bc 5f3c 463e
00000330: f673 693c 5a2a 3c3e 8776 543e adac 44be
00000340: df32 69be e474 b5bd 2818 733e 5fc9 0bbe
00000350: a838 b13e 15a8 60be f5a3 debd 16ac 983e
00000360: 0348 c6be b0eb e6bd 95bf cdbd 2244 a9be
00000370: 8d69 c7be 1e1b 98be 3ab8 bc3e 6b48 7b3e
00000380: 4431 ce3e 36f2 cc3e 7c43 1c3e e462 933d
00000390: ccc1 74bc a5ee 2cbd d0bd 713e 952d 103e
000003a0: d628 29be bc10 87be f14a 9abe 96ca 72be
000003b0: 3d4d a63c 2fe1 1c3e bb63 523e 0b88 a4bd
000003c0: c980 bdbe 4ec0 0fbe 7ff3 28bd 0645 59be
000003d0: 7c63 6ebe 8352 0a3e 0dfc 47be 6f1a 14be
000003e0: 3132 dc3e 120f 15be 23a9 853e e4cd 9cbc
000003f0: 2810 5abe 14b4 7abe 960f 613e ed97 4e3b

fc2.bias f4 [10]
-0.007876599 0.23534687 -0.0816821 -0.07568249 -0.16167079 0.13737145 -0.14836323 -0.0049480214
-0.0042151664 -0.18670051
00000000: da0c 01bc c5fe 703e f248 a7bd 6cff 9abd
00000010: 078d 25be 1aab 0c3e 88ec 17be 0323 a2bb
00000020: 611f 8abb 6b2e 3fbe
