MNIST/snapshots/baseline/calib_baseline_epoch_9.pt (torch_old, 88724 bytes, 8 tensors)

conv1.weight f4 [10, 1, 5, 5]
00000000: 17b0 3d3c 7808 37be 8573 35be 8d68 b2bd
00000010: 4c43 99be 2245 063e 9a30 ddbd 9423 c4bd
00000020: 008b 5fbe 9661 7fbe 9117 143e 5427 153e
00000030: 0c25 2e3e 0192 6fbd 4c7b 5dbd dd02 563d
00000040: 0c5a 2d3e cf4d 5a3e 7918 d23e d40a 4f3e
00000050: 21a9 46bc d7d7 1ebe c379 7ebd 2914 96ba
00000060: 73bb a53d c45b 1d3e 6f83 cd3e 7c90 4ebd
00000070: f13a 10bf a824 1dbe 06b0 263e ad96 093f
00000080: 35a2 49bd c8ef fbbe f36c e0be 10ea d8bc
00000090: 1430 2b3f 47a8 0fbe 8102 81be d674 a8be
000000a0: 5e0a 7c3e 511d 943e 2db1 943e ec59 e6bd
000000b0: ea6e 4ebe 1a51 473e 23ed 093e b1b0 6b3e
000000c0: 1360 e63d c7a7 e53d 5538 8dbe 4f62 97be
000000d0: 53de 29ba c36a ce3d bbe0 9c3e 2650 31be
000000e0: 38ce 47be 0372 d03d 6425 fe3e 088e a43d
000000f0: 4e6c a6be afec 253e 1844 2d3f 441b f13e
00000100: b767 b7be 3520 a63c 124b aa3e 76fa e63e
00000110: c695 53be 9211 d2be e26e 793e fa16 a73d
00000120: d494 3abd c9eb babe a6d5 85be 84be 0a3e
00000130: a5cc a83e 33fb a43e e5ec 55bc 06ae 383e
00000140: 75df 5cbe 14cd 6ebd 2c2d 1b3e a913 d73d
00000150: 1019 573e a3ba 3bbe 1ead 7fbe 1b5d a23d
00000160: 93df aa3b 1507 233e 9a78 703d 98cb a3be
00000170: af8b 84be 6e25 14be 0d7c 87be f820 3abd
00000180: 356e c9bb 7434 67be c2e9 90be 9d4b 47be
00000190: fce7 8d3e a02e c2bd 9f4c ddbd d90c 51be
000001a0: 7901 c1be e5f7 8fbd 0ec2 983e f96c 78be
000001b0: 4b80 0ebe 114d 8cbd 8511 27bd 7597 1b3f
000001c0: e737 c93e d5c6 96bc 5b66 583e 50fb 233d
000001d0: 0bbf df3e 2f6e b73e 2a10 8a3e 5db3 af3d
000001e0: c308 f2be b8bf b0be 53b2 9c3c 1627 b6bd
000001f0: e0aa 7e3c 2299 90be 8685 f5be d3f8 acbe
00000200: 8fba da3d 4fb1 b73e 935f a3be 40f7 27bb
00000210: 8c10 8c3e a55a 003f 6d83 003e 4aa6 3f3e
00000220: 6d95 0a3e 336e 9c3d d000 a53d 243f 17be
00000230: 64c2 813d 39ef 0cbd 46f3 80be 6530 4c3e
00000240: bc76 713e 121e 343b 166c fe3c adcd fc3c
00000250: 0471 763e 5e94 bb3e 6b62 c9bd 3899 403e
00000260: a380 74bc 2403 96bc b117 81be b12a 44be
00000270: 064b 19be 4197 b9bd c299 1a3e e118 a2bd
00000280: 2322 46be 1271 593d 34a3 9e3d 7742 1a3e
00000290: 920e e1bd a717 383d a65c 8ebd 19aa e9bc
000002a0: 5ace febd 9e64 bfbd b478 1bbd fbc8 8c3d
000002b0: 48d6 733d a980 093e c4e8 883e 8edd 6c3d
000002c0: 4967 2d3e e253 b73d 9850 02be 7bbb 883e
000002d0: 583a 67be 93e0 41be fe13 cdbe be9f b4be
000002e0: 58e4 9bbe 2291 e53d 9a83 84be 7c55 bdbe
000002f0: f70c 8cbe 04d3 a2be e373 8e3e 421a 383e
00000300: 1e80 fd3d c140 093e 537a 603e b3ee 3a3c
00000310: da28 d43e 2c1e 123f 057e 0b3f b557 5d3d
00000320: 7515 a9bd 28b7 4ebe 2ad4 413e 9307 663d
00000330: f2a1 453e 9935 0cbe bdf1 1ebe 1d2d b1bd
00000340: 7441 6c3e 2e73 bd3e 0037 2ebe e73c 2bbe
00000350: 1272 b8be ecd2 483e d3c8 083f d9b4 8fbd
00000360: 367e dfbd 9650 aebe 340e b7bd 7d09 063f
00000370: 1a68 d1be 5010 fabd e3a1 ccbe ce68 87be
00000380: 067a 9a3e 6eef b0bd 5175 9f3d 1042 af3e
00000390: ee33 da3e dfa4 ef3e e500 b5bd ec94 fcbd
000003a0: b8db a83e 8b92 103e f49a c03d 8175 62bd
000003b0: 6f32 16be b67d 1e3e c25e 243e fac8 28be
000003c0: ddfe 96be ab7d e3bd 217a d0bd d9aa 58be
000003d0: a19b 93be 4ade 10be 6e23 d4be 0055 f4be
000003e0: bddb d3be 24a6 17bc
0.011577628 -0.17874324 -0.17719848 -0.08711348 -0.29934156 0.1311231 -0.10800286 -0.095770985
-0.21830368 -0.2493957 0.14462115 0.14565784 0.1700632 -0.05848885 -0.054072663 0.052248824
0.16928881 0.21318744 0.41034296 0.20218974 -0.012125284 -0.15512024 -0.06212784 -0.00114501
0.08092394 0.15367037 0.40139338 -0.05043076 -0.5633994 -0.15346014 0.16278085 0.5374554
-0.04922696 -0.49206376 -0.43833122 -0.026478797 0.66870236 -0.14029036 -0.25197223 -0.3290164
0.2461333 0.28928617 0.29041424 -0.1124762 -0.20159498 0.19464532 0.13469367 0.23016621
0.112487935 0.112136416 -0.2758204 -0.2956719 -0.0006479967 0.10078957 0.30640206 -0.1731573
-0.1951226 0.10177996 0.49637902 0.08034903 -0.32504505 0.16203569 0.6768203 0.47091115
-0.35821316 0.02027903 0.332604 0.45112962 -0.20662603 -0.4102903 0.24358705 0.08158679
-0.04555209 -0.36508015 -0.26139563 0.13549238 0.3296863 0.322229 -0.013056968 0.18035135
-0.21569617 -0.058301046 0.1515395 0.10501797 0.21005654 -0.18332915 -0.24968383 0.07927915
0.0052146404 0.1592067 0.058708765 -0.31991267 -0.2588782 -0.14467403 -0.2646183 -0.045441598
-0.006147171 -0.22578603 -0.28303343 -0.19462438 0.27716053 -0.09481549 -0.1080563 -0.20415057
-0.37696436 -0.07029704 0.29835552 -0.2426032 -0.13916127 -0.06850637 -0.040788192 0.6077798
0.39300463 -0.018405357 0.21132796 0.040034592 0.43700442 0.3582625 0.26965457 0.08579133
-0.4727231 -0.3452127 0.019128 -0.08894174 0.015543669 -0.2824183 -0.47953433 -0.33783588
0.106801145 0.35877463 -0.31908855 -0.002562955 0.27356374 0.5013831 0.12550135 0.18715778
0.13533564 0.07638206 0.080567956 -0.1477018 0.06335905 -0.034407828 -0.25185603 0.19940336
0.2358045 0.0027483744 0.031057399 0.030859793 0.2406655 0.36636633 -0.09833225 0.18808448
-0.0149232475 -0.018312044 -0.25213388 -0.1915691 -0.14970025 -0.090620525 0.15097716 -0.079149015
-0.1934896 0.053086348 0.07745972 0.15064417 -0.10989107 0.04494443 -0.06951265 -0.028523492
-0.12441702 -0.09345363 -0.03795691 0.068742715 0.059530526 0.13427986 0.26740086 0.05782848
0.16933931 0.08951546 -0.12726057 0.26705536 -0.2258085 -0.18933325 -0.40054315 -0.35278124
-0.3044765 0.112093225 -0.25881654 -0.36979282 -0.2735364 -0.31801617 0.2782279 0.17978767
0.12377952 0.13403608 0.21921663 0.011409449 0.41437417 0.5707729 0.54489166 0.054038722
-0.08256046 -0.20187056 0.1892859 0.056159567 0.19300058 -0.13692321 -0.15521903 -0.08651183
0.23071843 0.37001938 -0.17013168 -0.16722451 -0.3602453 0.1961171 0.53431433 -0.07016916
-0.10912745 -0.34045857 -0.08938256 0.5235823 -0.40899736 -0.122101426 -0.3996726 -0.26447147
0.30171221 -0.086394176 0.07786048 0.3423009 0.42617744 0.46805474 -0.08838061 -0.12333092
0.32980132 0.14118402 0.09404555 -0.05528784 -0.14667676 0.15477642 0.16051772 -0.16482916
-0.2949132 -0.11107954 -0.10179544 -0.21158923 -0.28829673 -0.14147297 -0.4143328 -0.477211
-0.41378585 -0.00925592

conv1.bias f4 [10]
00000000: c3a6 ad3d b114 b1be 6ac5 b2be 7421 573e
00000010: 9a88 87be d9c5 93be c7b5 e33d b978 9fbd
00000020: ebfd b2bd 683d 4f3d
0.08479073 -0.345861 -0.3491624 0.21008855 -0.26471406 -0.28861883 0.11118656 -0.07786698
-0.08739837 0.05059567

conv2.weight f4 [20, 10, 5, 5]
00000000: 9f52 ae3c 8cfa c7bc c66c eabd 39d3 863d
00000010: cdff a03d 78c6 28bd 6b8b 00bc 11b0 e8bd
00000020: 3d63 4e3c f2da 39bd bce2 f4bc 866b 8abd
00000030: 4f42 97bd bc5b 213d 5072 99bc 375d 83bd
00000040: 49bd d3bd ed63 c1bc 888a 7abc 933d 77bc
00000050: a30a cebc 817a 293c aad6 893d 0502 683c
00000060: 6b43 64bd e019 53bd c74b 7cbe 62de 75bd
00000070: 440b 363c 923b 223e 6db6 0ebd 6791 75be
00000080: 2f8f dbbd ac5c 2dbd 8174 ca3d 8c15 8fbd
00000090: 3c34 1fbe d33c 903d ae03 c63c d179 a23c
000000a0: ef51 8dbd d313 733d 3e3d 5f3e e0bc da3b
000000b0: 5bcd 503d 60a5 6abc 52c8 1c3e 14eb 003e
000000c0: e1ac 48bd cb7b 573d 36d6 003d 48b8 83bd
000000d0: ed45 11bd 9385 25ba bd62 273e 60e9 acbd
000000e0: 3d48 6bba 2800 4c3e 8f40 513e f51c 183d
000000f0: 12c0 26bd 52bd 973d a00d bc3c bd66 3abd
00000100: af6c b23c c8aa 0fbe dd24 36bd 4113 19be
00000110: d518 4abe 8246 91bd 5579 02bc 50ea 86bd
00000120: 9f01 64be 43ee ecbd 0a92 7cbd d8bd a43c
00000130: b1b2 57bd d884 76bd 5645 b3bc 3143 70bd
00000140: ce18 10bd f43a c5bd 7ed5 12be c61d 48bd
00000150: a8bf 4bbd e02e f8bc 30ff 8fbd 7413 cdbd
00000160: fe45 babd d071 0ebd 4f20 173d e443 7a3b
00000170: 7c59 7bbd 8f40 a6bc 85fe e13d c7bd 0b3d
00000180: 6ca9 b13d b546 e23c 7a33 eb3c a24e 9f3c
00000190: 8265 eb3d 5b6e fabd 5445 ec3b 6d9b 943d
000001a0: d726 6f3e 3280 ae3b 5a7e 15be 527a 713b
000001b0: 7dc2 08bc 07ea 673d 51c3 b0bd e6ba ecbc
000001c0: 8214 4f3c f508 febc f652 b23d 79bb f2bd
000001d0: d992 563b ecc0 603e 82b9 8e3d b186 123d
000001e0: 503b 0abe e92c fdbd 3338 63bc 9990 3d3c
000001f0: 9b46 0dbe 0458 183d 754d 6f3d 8454 8abb
00000200: befa 0dbd a7a3 f63b aa00 8abd 3418 dd3d
00000210: ae84 173e bb57 2a3e 4c81 383d 163b 953d
00000220: 4c92 923e 2bab 3b3e 8b4d e73d 95bd 90bd
00000230: 5137 10bd 26ad 2d3e 80c6 173d 3c3d bbbd
00000240: 4371 11be 0965 d1bd 63f5 cebc 3914 f9bd
00000250: 0110 e0bc b9ba 3dbe 3aed 06bd 44ba 27bc
00000260: 74ba 0e3c 7ab6 5dbd 0096 073d b1f1 893b
00000270: 2d2d a7bd 8409 313d 9d59 60bd c850 e9bc
00000280: f009 90bd bad4 2d3d f42e 743c 8edd e23c
00000290: 656e cbbc 7a4f 94bb 4e70 77bc a69c 29bd
000002a0: 4155 ea3b 32bc 15bd c3e3 7cbc c6e0 9fbc
000002b0: d89b 6a3c 1cb1 8d3c 850b e7bc 8057 efbc
000002c0: c19b fd3c 763a 78bd 3f41 d93a 4a40 783d
000002d0: fe94 4f3c 81d0 733d 7cae 39be 252b 33bc
000002e0: 6452 443d 5f44 1cbd 8ea1 42be 9de6 eebd
000002f0: 58ab b3bc dc3d ec39 4b4b 02bd 038d 9ebd
00000300: e71e 973d 0693 9e3d 5653 593d 8fa0 f73d
00000310: 1cff 2cbd ff03 e4bb 9e5c b33c fea2 11be
00000320: f53a 583c d3b9 8ebb 8758 94bd f0c6 cfbc
00000330: 6062 63bd 777e 5c3c 3e61 17bd 6439 2cbe
00000340: e4f3 15bd 6d1d 88bd f30a 8e3d fbb8 993d
00000350: ec5c 6c3d 4d74 603d 9b10 c33c 29da f63d
00000360: 0ab2 6f3d 8541 b63d fa46 7f3d 97ea 88bd
00000370: f1a9 333c c592 d83c c153 ad3d b8db ff3a
00000380: 2f44 debc da49 f73d 022c 5dbc 6e7f a33b
00000390: 5daf 87bd d811 82bc db3b 873c 443f a5bd
000003a0: a8d6 87bd 1b47 2cbe 055a 68bc 9959 7e3d
000003b0: c245 603d c4a2 1fbe 439a 06be 4bc8 ff3c
000003c0: e974 61bd bfa0 acbd 9b58 d3bd 9327 133d
000003d0: ea28 9d3d 32b0 1dbe 6192 74bd e71c 9bbc
000003e0: 03b9 803d 130e 41bc c162 30bd 796f 353c
000003f0: b7f0 afbd fa26 133c 2028 7fbc 7007 06bd
0.021279631 -0.024411462 -0.11446528 0.06583256 0.0786129 -0.0412049 -0.00784574 -0.11361707
0.012596902 -0.04537482 -0.029893272 -0.0675879 -0.07385694 0.039394125 -0.018731266 -0.06414264
-0.10338838 -0.023607219 -0.0152918175 -0.015090364 -0.025151556 0.010344149 0.06730397 0.014160638
-0.055728357 -0.05153835 -0.24638282 -0.060026534 0.011111084 0.15843037 -0.034841944 -0.23981248
-0.107206695 -0.042324707 0.098855026 -0.069865316 -0.1554727 0.07042851 0.024171676 0.019833477
-0.06900393 0.059345078 0.21800706 0.0066753477 0.050977092 -0.014321655 0.15310791 0.12589675
-0.048992995 0.052608293 0.031454287 -0.06431633 -0.035467077 -0.00063141546 0.1634626 -0.0844295
-0.0008975303 0.19921935 0.20434783 0.03713699 -0.040710516 0.07409157 0.022955716 -0.045508135
0.02178034 -0.14029992 -0.04446875 -0.14948751 -0.19736035 -0.070935264 -0.007963498 -0.0658766
-0.22266243 -0.11568882 -0.06166271 0.020110056 -0.052660648 -0.060185283 -0.021883648 -0.05865783
-0.035179906 -0.09630385 -0.14339253 -0.04885652 -0.049743325 -0.03029579 -0.07031095 -0.10013476
-0.09095381 -0.03477651 0.036896046 0.0038187439 -0.061364636 -0.020294456 0.11034874 0.034116533
0.08674893 0.027621606 0.02871107 0.019446675 0.114939705 -0.1222808 0.007210413 0.072562076
0.2335466 0.0053253407 -0.1459898 0.003684659 -0.008347151 0.05661967 -0.08631004 -0.028897714
0.012639167 -0.03101013 0.0870723 -0.11852164 0.0032741337 0.21948594 0.069689766 0.035772983
-0.13499188 -0.123620816 -0.013868379 0.011570119 -0.13796465 0.037193313 0.05842348 -0.004221501
-0.034662955 0.007526833 -0.06738408 0.10795632 0.14796707 0.16635029 0.045045182 0.072866604
0.2862724 0.18327014 0.11294087 -0.0706741 -0.035209004 0.16960582 0.03705454 -0.09142539
-0.14203362 -0.10224349 -0.025263494 -0.1216206 -0.027351381 -0.1852826 -0.03294108 -0.01023728
0.008711446 -0.0541291 0.033102036 0.00420972 -0.081629135 0.043221965 -0.054772962 -0.028480902
-0.070331454 0.0424392 0.014903773 0.027693536 -0.024832914 -0.004526076 -0.015102459 -0.041409157
0.0071512763 -0.03655643 -0.015435162 -0.01951636 0.014319383 0.017296366 -0.028203735 -0.029216528
0.030958058 -0.060602628 0.0016575231 0.060608186 0.0126698 0.059525017 -0.18132967 -0.010935579
0.047930136 -0.03815114 -0.1900694 -0.1166508 -0.021932289 0.00045059517 -0.031810086 -0.077417396
0.07378941 0.07742886 0.05305799 0.12091171 -0.04223548 -0.006958484 0.02189475 -0.14222333
0.01319765 -0.004355648 -0.07243448 -0.025363415 -0.05551374 0.013457886 -0.03695797 -0.16818768
-0.036609545 -0.066462375 0.06935682 0.07505985 0.057705805 0.054798413 0.023811629 0.120533295
0.0585194 0.088992156 0.062323548 -0.066853695 0.01096581 0.026437173 0.084632404 0.0019520437
-0.027132122 0.12074633 -0.013499262 0.004989556 -0.06625245 -0.01587765 0.016508033 -0.080687076
-0.06632739 -0.16824 -0.014181619 0.062097166 0.054754026 -0.15589434 -0.13144784 0.031223437
-0.055043135 -0.084290974 -0.103196345 0.035926413 0.07673819 -0.15399244 -0.05970991 -0.01893468
0.06285288 -0.011783141 -0.04306293 0.01107394 -0.085908346 0.008981461 -0.015573531 -0.032721937

conv2.bias f4 [20]
00000000: ce38 47bd 6cf4 80bc 4c1b 27bc 98a5 83bd
00000010: 7ef1 edbd dedb 8b3c 348b 48bd c61b 9ebd
00000020: 5bcd d6bd cb5c 92bc 5b6a e73d b26a a7bd
00000030: c4ed 64bd 042d 22bd 16e6 b4bd 67f1 d0bd
00000040: 8052 1dbd f66c 04be 8723 2ebc 2f3b 113e
-0.048638158 -0.01574155 -0.010199379 -0.06428069 -0.116183266 0.017072614 -0.04896088 -0.07720141
-0.10488387 -0.017866513 0.112995826 -0.081746474 -0.055890813 -0.03959371 -0.08832948 -0.10202294
-0.038408756 -0.1293219 -0.010628588 0.14182733

fc1.weight f4 [50, 320]
00000000: af2b 34be c4c7 f4bd 05b0 743c c572 ffbb
00000010: 263e 02bd 4d81 61bc 7835 b03d 8ce9 6a3d
00000020: 9a3d 1e3d 8f54 e43d a37a 383d 6682 573d
00000030: 094a 09bc 703d 38bd 85ba 2a3d 9016 c93b
00000040: 8e3f 8cbc f7e4 9abc 076e 64bd d9fd 843d
00000050: de77 f4bc 7f14 8e3c 27ff b03d 9585 3c3d
00000060: a078 df3d f19b 9cbc 8171 883d 09ab 373c
00000070: 0191 adbc 2745 74bd 201b 2f3d 0720 0a3c
00000080: e45d 82bd 4158 e2bc 6bd1 b9bd 16d0 7cbd
00000090: 89de 79bd eb38 1cbd 01ff 793d 3b04 dd3d
000000a0: ac65 6f3d 1ebd ba3d c2e1 483d 3410 a0bc
000000b0: 6878 dabc ef45 a0bc bd78 df3d ea90 c5bc
000000c0: b531 c7bc 70a4 bc3c 69cd 12bc 0ec2 b43c
000000d0: e98a 8d3d b064 fe3d 9a4f ccbb 284d e83c
000000e0: b183 f23b 3913 d8bd 0ca9 14be 329a 52bd
000000f0: 1a12 a5bc a5f9 a7bd d371 a1bd f87f e7bd
00000100: 6ae6 21bd 7834 53bd d408 d9bb 73a5 83bc
00000110: 3a95 77bd 1b19 0a3d 7375 32bd 6e1a 94bc
00000120: 53e7 983c 7e5c 7fbc 5565 65bd 0a4e 253d
00000130: ebd5 083d d313 1f3e f18e 89ba 1495 60bc
00000140: 276e d2bd 3b4e 9fbc 3846 203d 1a21 64bd
00000150: 6c20 5cbd f13c 583d 8af8 34bd f7bf cfb8
00000160: d471 cc3c e176 253d 7718 dcbb bbbc 4a3c
00000170: 5258 9d3c 1c35 303e 9d0c f43d 83e6 013d
00000180: 6d72 10bd 2caa 593d fb2e b73d 4b9d d93b
00000190: 8826 e93d a264 9f3d f180 c3bc aadc 2aba
000001a0: 3a1a 90bd 06e5 9abd 8e98 19bd 88a2 8fbd
000001b0: 4b66 b33d 2af7 9cbd ab01 2dbe 3dfd 13be
000001c0: cfb7 4cbc d088 eebd ab76 d73c 7000 a23d
000001d0: 722b 88bc c009 97ba 029e 4d3d 9b50 d83d
000001e0: 392a 8f3d 361b 783d 3b16 4abd 8aaf 17bb
000001f0: 3ea0 64bd 3848 6abd 37bc ed3c ee96 6dbd
00000200: 5cc4 71bd fa44 a6bb b7a2 853d e87b a9bb
00000210: e3fe 113d 9b93 9f3d bc4f cc3d b1f7 7c3c
00000220: 0fe2 5a3d 9f6d a3bd 4fff e3bc 9419 433d
00000230: 3e70 babd 17bb 90bd e478 f9bd 38b2 bcbd
00000240: 8be9 afbd 0651 06be efe2 1a3c 067f 753d
00000250: e614 dabc a0cb 8bbc 91d7 9c3d 11e5 31bd
00000260: 8f5e cf3c b78d cb3c 9e48 11bd 1915 553d
00000270: ce75 e93d 0bbe 043e 7dfd 8f3d 41bc 533d
00000280: 5240 8fbd 75ca 82bd ceba 90bd 056d 1dbc
00000290: 033c f13b a79b 27bd d73f c03d 6916 563c
000002a0: 9a6b 98bd cd51 0d3d 3b52 e03c 11b3 c53d
000002b0: 70a9 993d 0628 833d f777 ac3d 7210 c0bd
000002c0: a92b 20bd 3faa 18be 9aec a3bd 77b0 9fbd
000002d0: 7bbc 88bd 83e5 34bd 8745 f43c 4ad2 bdbd
000002e0: 291f a33c 7cf4 71bc 7037 b1bc a21c 733c
000002f0: a36d 433d 70ca bf3d be92 9b3d bd28 b33d
00000300: e5e0 23bd a4be 243d 0b11 033d 0cfa 193d
00000310: 5d4f bb3c 4f05 313d 6a12 393d 7e6f 973d
00000320: c39a 393d 529f 0cbd 22ba 74bc 45cc 8c3a
00000330: 8371 123c b649 80bc 05a9 28bd 74a5 6ebd
00000340: e5ac 3bbd 5aba 1f3d 5d70 013e f7c9 ee3d
00000350: 0911 0b3e 121f 923d d7fb 123d a93f 493c
00000360: 630a debd c5cc 97bd 7ee7 dbbd c322 23be
00000370: c415 f8bd c8dc 83bd 145e 22be 4735 4bbe
00000380: ebec 873d cfe7 333d 47bc adbd 6e55 75bd
00000390: 25fc 9a3c 6c6c ffbc 0a09 9ebd 90f4 5a3d
000003a0: 7250 13bd b7c4 f63c 20b8 e03c 5ec3 cd3b
000003b0: 50f0 64bc 5c26 193c 6e58 71bd 1d0d 04bd
000003c0: 3239 3c3d 6e94 8a3d 05f9 0fbd be81 58bc
000003d0: 86db 3cbc c7ef 0c3d 11a0 983c b17b d13d
000003e0: f9ff 353d ed4f 0b3d 0112 d73d f2ec 8e3c
000003f0: 37f1 9fbc 1e23 9ebd 6ee0 afbd e0f5 73bd
-0.17594789 -0.11952165 0.014934544 -0.007795664 -0.03179755 -0.013763738 0.08603948 0.057351634
0.038632967 0.11148941 0.04503883 0.052614592 -0.008379468 -0.044980466 0.041681785 0.006136723
-0.017120149 -0.018908007 -0.055768993 0.0649373 -0.029842313 0.017343758 0.086424164 0.04602583
0.10911679 -0.019117327 0.06662274 0.011210212 -0.021187307 -0.05963626 0.042750478 0.0084304875
-0.063655645 -0.027629973 -0.090731464 -0.061721884 -0.06100324 -0.03814022 0.061034206 0.107918225
0.05844657 0.091181025 0.049043424 -0.019538976 -0.026668742 -0.019564597 0.10911701 -0.024116952
-0.024315694 0.023027629 -0.008960106 0.022065189 0.06911261 0.12421548 -0.006235075 0.028357103
0.0074009527 -0.105505414 -0.14517611 -0.051416583 -0.020150233 -0.08201913 -0.07883038 -0.11303705
-0.03952638 -0.05156371 -0.006623367 -0.016070103 -0.060445048 0.03371535 -0.04356904 -0.018079009
0.018664991 -0.015586017 -0.05600484 0.040357627 0.033407133 0.15534906 -0.001049487 -0.013707418
-0.10274916 -0.019446483 0.039129466 -0.05569563 -0.053741857 0.052792493 -0.044182338 -9.9062854e-05
0.024956621 0.040396575 -0.0067167836 0.012374098 0.019207153 0.1720776 0.11916468 0.031713974
-0.035265375 0.053140804 0.08944508 0.0066410652 0.113843024 0.07782866 -0.023865195 -0.0006517867
-0.07036252 -0.07563214 -0.037499003 -0.07013422 0.08759745 -0.0766433 -0.16895168 -0.14452071
-0.012494995 -0.11647189 0.026301702 0.0791024 -0.016622279 -0.0011523291 0.050199516 0.10562249
0.06990475 0.060572825 -0.049337607 -0.00231454 -0.05581688 -0.05719778 0.029020412 -0.058005266
-0.059025154 -0.0050741406 0.06525176 -0.0051722415 0.03564347 0.077918254 0.099761456 0.015439914
0.053438243 -0.07979893 -0.027831702 0.047631815 -0.0910344 -0.070669346 -0.12181261 -0.0921368
-0.08589467 -0.13116845 0.009453519 0.059935592 -0.026621293 -0.01706487 0.076583035 -0.043431345
0.025313644 0.024847848 -0.035469644 0.052022073 0.113994226 0.1296312 0.07030771 0.051693205
-0.0699469 -0.06386272 -0.0706688 -0.009608512 0.0073618903 -0.040919926 0.093871765 0.013066866
-0.07442398 0.03450184 0.02738296 0.09653295 0.07503021 0.06404118 0.08421319 -0.09378137
-0.039104138 -0.14908694 -0.080041125 -0.0779733 -0.06676575 -0.044164192 0.02981831 -0.09268625
0.01991232 -0.014767762 -0.02163288 0.01483837 0.04771198 0.09364784 0.07596348 0.087480046
-0.040009398 0.04022087 0.031998675 0.03759198 0.022864992 0.043217953 0.045183577 0.07394312
0.045313608 -0.034331627 -0.014936956 0.0010742029 0.008938196 -0.015660148 -0.041176815 -0.058263257
-0.045819182 0.038996078 0.1264052 0.116596155 0.13580717 0.071348324 0.035884704 0.012283244
-0.10841825 -0.074121036 -0.10737513 -0.1593123 -0.121135265 -0.06438595 -0.158562 -0.19844542
0.066369854 0.04392224 -0.08483177 -0.059895925 0.01891906 -0.03117963 -0.07716568 0.05345589
-0.03596539 0.030123098 0.027431548 0.006279393 -0.013973311 0.0093475245 -0.058922224 -0.03223907
0.045952983 0.06766592 -0.035149593 -0.013214527 -0.011526948 0.034408357 0.018631013 0.102286704
0.044433568 0.03401177 0.10501481 0.017446969 -0.0195242 -0.07721542 -0.085877284 -0.059560657

fc1.bias f4 [50]
00000000: 8236 183e 4991 083e 2b08 0c3c 5c98 4c3d
00000010: 7cea 4c3d 2c1b 0c3d 49f8 d9bc ba73 12bc
00000020: 6db8 493d 867a 8e3c 4e8e 073d dd73 233e
00000030: 538c cabb 17c5 d53c 95ad e73c 04c2 643b
00000040: 879a 3d3e cdcc 863d 4589 003e f765 703d
00000050: fd2c 493d ac9a b03d cdc9 573c e385 303e
00000060: 08d1 af3d 4268 053d ec81 833d e2c7 b53d
00000070: 5eb2 ad3b aba9 a2bb c0cc 193e 8304 683d
00000080: 81cd d93d e493 3e3c 32db b23c 8a09 303e
00000090: 5098 003d 04a5 aabc 2d30 0a3e 54ee 823c
000000a0: 89b3 5d3d 3280 023e 7bed b73d 5e7b 96bd
000000b0: 7f6d 103d e028 433d 6d33 6abc 7e05 57ba
000000c0: 2923 0d3d 9632 6a3d
0.14864543 0.13336672 0.008546869 0.04994999 0.05002831 0.0342056 -0.02660765 -0.008938724
0.049248148 0.017392408 0.033094697 0.15962167 -0.0061812787 0.026094956 0.028281013 0.0034905681
0.18515979 0.065820314 0.12552364 0.05869099 0.04911517 0.08623251 0.013170672 0.17238574
0.085847914 0.03257013 0.06421265 0.08876015 0.005300804 -0.0049640737 0.15019512 0.056644928
0.106349 0.01163194 0.021833036 0.17191139 0.031395257 -0.020830639 0.1349494 0.015982784
0.054126296 0.12744215 0.08980843 -0.07347749 0.035260674 0.047646403 -0.014294487 -0.00082024175
0.03445736 0.05717715

fc2.weight f4 [10, 50]
00000000: d5d3 a73d 9951 7fbd a678 6d3d 8f5e 0e3d
00000010: 8985 e7bd 8985 5e3d dd7b 8dbe 13b3 053c
00000020: 5a4b 21be 14ed 52be cbcc cabe 2317 4cbe
00000030: 4315 a5bc bb4f 9b3e d189 bd3e 7f5f ae3e
00000040: d79b 813e 4ce1 0f3e 958c 833b b444 fa3d
00000050: 174e 71be d52d 07be af2c b23c 36e8 98be
00000060: 4666 98bd e09c dfbe 1cb1 30be a05c 99be
00000070: 9918 993d 2a11 c03e 6b63 32be 15c4 0a3e
00000080: 2e7d 043f 995d 993e 383e c0bd 4954 5e3e
00000090: 475d ed3d d670 c53d 98fa b5bc d456 a6be
000000a0: bf5f 37be 0c86 10bf 5d23 673e 984e 40be
000000b0: 2758 103d 36f6 a03e 137d a8bd 1efe 743d
000000c0: 68ff 0b3a 9f6b ddbd 88fa 3e3e ee10 963e
000000d0: 097c 96be 103b 7b3e dc73 483e a33a 923e
000000e0: 2773 82be 432b a83d 9f48 22bd cc4b 1abe
000000f0: 7571 fa3e 25b7 f33e fe6b 073c 4eb9 b9bd
00000100: aefc 1c3e 7e50 dbbe 1e7b ab3e a8aa 053c
00000110: eaab 93be dcae 94bd b1c6 b7be eab0 0c3e
00000120: 47f0 8d3d f350 bc3e 35f0 523e 94ef 78be
00000130: 7033 02bf ab2d 4c3e ca08 373c c33f 053d
00000140: 1a74 c83e 74d2 173e 58d4 bfbd 71b9 42be
00000150: 766e 903e 928d d23d ae67 debe ffd0 4abe
00000160: db3f a33e db8e 9e3d d650 dfbd 9f9c 483e
00000170: 078a 8bbe 1a5c a2be 7b70 be3e af5f 03be
00000180: d635 4fbd 481d a83e 63b6 d4be 2fe8 a5bc
00000190: 912b 3ebe 8e4d 37be 3de5 f8bd a796 41be
000001a0: e450 55bd c584 d53e d5e7 803e d98b b23d
000001b0: 9454 db3e dbbd 1b3e 5647 dcbd 9531 823d
000001c0: cd4b 783e 2c73 c93e 9ddc 0ebe 7901 253d
000001d0: c357 4cbe 12a8 1ebe b87f 88be 7124 a4be
000001e0: bc1f cabc b121 8e3e 383b eabd c1b5 a4be
000001f0: b2c6 4bbd 2e14 40be f6da 52be fa22 1cbc
00000200: dc4a 4dbe 153b 433d e102 6dbe 290a b5be
00000210: d411 873e 0b03 a3be 3a30 033e 1a1f 7c3e
00000220: 2ed2 343c 0851 94be cf52 893e 5c6f e83d
00000230: 2bfd 273e 8420 533e 3598 49be 346d 93bd
00000240: 9bdc 5b3e 2b46 5a3e 4325 64bd 5e31 023e
00000250: 3a79 9cbe 6bec af3e a9fb 68bd b48b 903e
00000260: 124d 8a3e f757 07be 5714 03bd 9ead 69be
00000270: 37f8 203e f725 c63d 7d76 b13d 38af 623d
00000280: a14f 0cbe dc57 9f3e c984 1bbe 5e8e d6bc
00000290: 5c61 c6bc 598b 12be 8f7e 03be 8ece 2e3e
000002a0: f7b6 81be 3e0f dd3e da43 0d3e f028 8d3e
000002b0: f5ad ea3c aca8 3fbe 622c 77be 892c 57be
000002c0: b6ca ae3e ddba 67be 8ea7 253e e8be c5be
000002d0: 8775 0ebf 4efc 8a3e 6f63 9ebe 1c6a 653e
000002e0: c3dd 28bd 5aa1 5bbc 53a9 403d 9940 813e
000002f0: a64f b2be 9c67 05bc 3377 a73e b298 d23e
00000300: 1a4d 85be 513c 913e 1c8e 4a3b e744 4abe
00000310: 0bd7 0ebe 919c debd a0e0 5abe 2713 a93e
00000320: 35ba 9fbd 9816 c2bd 42e4 5cbc 4944 fa3d
00000330: 4a22 93bc 519d 593e 7241 883e 1ce4 28be
00000340: 7478 89be 1582 34be 274a 803e d3aa f1bd
00000350: 88b0 b83e adaa 72be 1628 cdbd 38ae b23e
00000360: bfec f4be ad92 35be 73ee c2bd 3302 c0be
00000370: 112c 8dbe f5c0 a1be e842 db3e f31c 9a3e
00000380: 07b5 513e 7a35 bf3e d7d5 273e aa46 c13d
00000390: e2d3 003c 9ec5 4e3c 8a14 9a3e ad8c dcbc
000003a0: 1f3a 50be a80b 99be 48dc 30be 81c7 0dbe
000003b0: 2ae2 a33d 94c4 823e 3ec8 5f3e f9ae d7bd
000003c0: 954e d8be f24a a6bc 887b cd3c c2b0 52be
000003d0: fa11 23be b30a 193e 397b 26be a630 70be
000003e0: a47b b63e fda6 03be 7447 383e 9f18 a13d
000003f0: e2f6 0f3d ba32 3fbe 1911 733d d5cf f2bc
0.08194701 -0.062333677 0.057976387 0.034758147 -0.11304767 0.054326568 -0.27633563 0.00816037
-0.157514 -0.2059825 -0.3960937 -0.19930701 -0.02015174 0.30334267 0.37019208 0.34057233
0.2531421 0.14050788 0.0040145614 0.12220135 -0.23564945 -0.13201077 0.021749822 -0.29864663
-0.07441382 -0.43674374 -0.17255062 -0.2995348 0.07475395 0.37513095 -0.17420737 0.13551362
0.5175351 0.29954222 -0.09386867 0.2171184 0.11590057 0.09640662 -0.022214219 -0.3248812
-0.17907618 -0.5645454 0.22572084 -0.18779981 0.03524032 0.31437844 -0.08226981 0.059812658
0.00053404877 -0.10811543 0.18650258 0.2930979 -0.29391506 0.2453425 0.19575447 0.2856036
-0.2547848 0.082113765 -0.039620038 -0.15067977 0.48914686 0.47600666 0.008265493 -0.09068547
0.15330765 -0.42834848 0.33492368 0.008158363 -0.28842098 -0.07259914 -0.35893777 0.13739362
0.06930595 0.3678051 0.20599444 -0.24310142 -0.5085974 0.19939296 0.011171529 0.03253151
0.39151078 0.14826375 -0.09366673 -0.19016053 0.28209275 0.10280909 -0.43438476 -0.19806288
0.31884655 0.07742091 -0.1090409 0.19590996 -0.27253744 -0.31710893 0.3719519 -0.12829469
-0.05058845 0.3283484 -0.415454 -0.020252315 -0.18571307 -0.17900679 -0.12153099 -0.18905126
-0.052079096 0.41702858 0.25176874 0.0871808 0.42837965 0.15209143 -0.10755794 0.06357113
0.24247666 0.39345682 -0.13951345 0.040284608 -0.19955353 -0.15493801 -0.26659942 -0.32059053
-0.024673335 0.2776008 -0.11437076 -0.32169917 -0.049750037 -0.18757698 -0.2059134 -0.009529823
-0.20048088 0.047663767 -0.2314563 -0.35359314 0.2638079 -0.3183826 0.12811366 0.2462124
0.011036439 -0.28968072 0.2682099 0.11349365 0.1640517 0.20617872 -0.19686969 -0.07198563
0.21470873 0.2131583 -0.055699598 0.12714145 -0.3056124 0.3436006 -0.056880627 0.28231585
0.27011925 -0.1321715 -0.03200182 -0.22820136 0.15719686 0.0967521 0.08665178 0.055342883
-0.13702251 0.3112172 -0.15187372 -0.026190933 -0.024216346 -0.1431097 -0.12841247 0.17070982
-0.25334904 0.4317569 0.13795415 0.27570295 0.028647402 -0.18716687 -0.24138024 -0.21013083
0.3413903 -0.22629876 0.16177198 -0.38622212 -0.5564808 0.27145618 -0.30935237 0.22403759
-0.041227113 -0.013405168 0.04703648 0.25244597 -0.34826392 -0.008142378 0.3270813 0.41132122
-0.26035386 0.2836633 0.0030907458 -0.19752847 -0.1394922 -0.108697064 -0.2137475 0.33022425
-0.07799188 -0.09476966 -0.013482155 0.122200556 -0.017960686 0.21251418 0.2661243 -0.16493267
-0.2684971 -0.17627747 0.25056574 -0.1180016 0.36072183 -0.2369792 -0.100174114 0.34898543
-0.47836873 -0.17731734 -0.09518137 -0.37501678 -0.27572682 -0.31592527 0.42824483 0.30100212
0.20479213 0.37345487 0.16390167 0.09437306 0.007863017 0.012620358 0.30093795 -0.026922548
-0.20334671 -0.29891706 -0.1727153 -0.13845636 0.08002122 0.25540602 0.2185373 -0.1053142
-0.42247453 -0.020299409 0.025083318 -0.2057524 -0.15924826 0.14945488 -0.16257943 -0.23456058
0.35641205 -0.1285667 0.17996007 0.07866024 0.035147555 -0.18671694 0.059342477 -0.029640118

fc2.bias f4 [10]
00000000: e6a2 3cbd 8035 743e af08 d6bd 05da a0bd
00000010: 52de 02be 9ffa b83d b98d c6bd e3d3 bcbc
00000020: 646d 65bc 6f96 0bbe
-0.04605379 0.23848534 -0.10450875 -0.07854084 -0.12780121 0.09032177 -0.09695 -0.023050254
-0.014003132 -0.13631605
