MNIST/snapshots/oe_scratch/calib_oe_scratch_epoch_9.pt (torch_old, 88724 bytes, 8 tensors)

conv1.weight f4 [10, 1, 5, 5]
0	0x3ca0083a	0.019535173
1	0xbe8758e3	-0.26435003
2	0xbe82c60a	-0.25541717
3	0xbe1e548f	-0.15461944
4	0xbeba4da7	-0.3638737
5	0x3e10aedb	0.14129202
6	0xbded895d	-0.115984656
7	0xbe0af922	-0.13571599
8	0xbe85751f	-0.2606592
9	0xbe9909c8	-0.29890275
10	0x3e4673b6	0.19380078
11	0x3e694776	0.22781166
12	0x3e6fd8aa	0.23422495
13	0xbb8475ed	-0.004042378
14	0xbd8709af	-0.06593644
15	0x3db79bc5	0.089652576
16	0x3e82fc24	0.25582993
17	0x3e9b1b74	0.30294383
18	0x3ef72343	0.4826909
19	0x3e44c883	0.19217114
20	0xbdd5382b	-0.10411104
21	0xbe5c4ea8	-0.2151438
22	0xbd5da003	-0.054107677
23	0xbc859e2b	-0.016310772
24	0xba70af61	-0.0009181407
25	0x3e0052ff	0.1253166
26	0x3ecb8dc1	0.39756587
27	0x3dc2a4f6	0.0950412
28	0xbed5d002	-0.4176026
29	0xbe943b2e	-0.289514
30	0x3df9ad7e	0.12191294
31	0x3f0cf685	0.5506366
32	0x3dd4dff6	0.1039428
33	0xbf0185df	-0.50594896
34	0xbf18998e	-0.59609306
35	0x3bfe63ab	0.007763346
36	0x3f477007	0.77905315
37	0xbe469591	-0.19392993
38	0xbed9b03f	-0.42517278
39	0xbf0119bb	-0.50429887
40	0x3eb1925e	0.34681982
41	0x3ea072e4	0.31337655
42	0x3dcb481f	0.099258654
43	0xbe9d82b3	-0.30763778
44	0xbe7aba51	-0.24485137
45	0x3e9ff635	0.3124253
46	0x3e5c8e33	0.2153862
47	0x3e6d771f	0.23189972
48	0xbd2272f5	-0.039660413
49	0x3d95205d	0.072815634
50	0xbeddf08f	-0.43347594
51	0xbedad39a	-0.42739564
52	0x3a8b9972	0.0010650589
53	0x3d70ab8c	0.05875735
54	0x3eb08b88	0.34481454
55	0xbe66107d	-0.22467227
56	0xbe2f1b98	-0.1710037
57	0x3e1ae5b6	0.1512669
58	0x3eeb6017	0.45971748
59	0x3e1e6ec5	0.15471943
60	0xbe9a5a9e	-0.3014726
61	0x3e56a504	0.20961386
62	0x3f358268	0.7090211
63	0x3f02e53e	0.51131046
64	0xbeb2459c	-0.34818733
65	0x3cd8d00c	0.026466392
66	0x3e826c96	0.2547347
67	0x3eea03a2	0.45705897
68	0xbe7343f2	-0.23756388
69	0xbf0a8916	-0.54115427
70	0x3e39fe94	0.1816352
71	0x3d955be1	0.07292915
72	0x3d6fde81	0.058561806
73	0xbe96f653	-0.29484805
74	0xbe578def	-0.21050237
75	0x3e1f444f	0.15553401
76	0x3ea0079b	0.31255803
77	0x3ea5b89e	0.32367414
78	0xbd2b8444	-0.041874185
79	0x3de64f35	0.11245576
80	0xbe5438e0	-0.20724821
81	0xbd153cdb	-0.03643499
82	0x3e459b8e	0.1929762
83	0x3e0a91a7	0.13532124
84	0x3e6153de	0.22004649
85	0xbe690993	-0.22757559
86	0xbe6c9b2b	-0.23106067
87	0x3df3c70f	0.11903202
88	0x3cc4c21b	0.024018338
89	0x3e35385e	0.17697284
90	0x3c4be8fa	0.012445683
91	0xbe9f8704	-0.31157696
92	0xbe6ae9c1	-0.22940733
93	0xbe026c67	-0.12736665
94	0xbe84de2a	-0.25950748
95	0xbdaaaa7a	-0.08333297
96	0xbd575745	-0.05257346
97	0xbe7f3c59	-0.24925365
98	0xbeadf11c	-0.33973014
99	0xbe53ec03	-0.206955
100	0x3f039c61	0.5141049
101	0x3bc50b94	0.006013343
102	0x3c8b8797	0.017032428
103	0x3d99c3c0	0.075080395
104	0xbc899c66	-0.01679821
105	0xbdaf9073	-0.085724734
106	0x3e9a2225	0.30104175
107	0xbc97b5a4	-0.01851923
108	0x3d65b8ca	0.05608443
109	0x3dac13b8	0.084021986
110	0xbd88433c	-0.06653449
111	0x3ee22644	0.4416982
112	0x3e964772	0.29351383
113	0xbdf864a4	-0.12128571
114	0x3d1b4274	0.03790517
115	0x3e1d64df	0.1537051
116	0x3ea89771	0.3292804
117	0x3e5f6b48	0.21818268
118	0x3e27f857	0.16403328
119	0x3d175e16	0.03695496
120	0xbd80bfb3	-0.06286564
121	0xbda62632	-0.08112754
122	0x3e24ee45	0.16106518
123	0x3d84ac4d	0.06478176
124	0x3e298331	0.16553952
125	0xbec176aa	-0.37785846
126	0xbf170dba	-0.5900532
127	0xbed7f1bc	-0.42176616
128	0x3e03e104	0.12878805
129	0x3ecbed22	0.39829355
130	0xbee1de00	-0.44114685
131	0xbd781a2e	-0.060571842
132	0x3e64b46f	0.22334455
133	0x3ed4bbc7	0.41549513
134	0x3e221bb0	0.15830874
135	0x3d7afd61	0.061276797
136	0x3e47ed34	0.1952408
137	0x3d880bb4	0.06642857
138	0x3d148f5d	0.036269534
139	0xbe3b5459	-0.18293895
140	0xbca6342c	-0.02028855
141	0xbc365f4f	-0.011131122
142	0xbe842012	-0.25805718
143	0x3e47764c	0.1947872
144	0x3e80d03f	0.2515888
145	0x3d1d14a3	0.03834976
146	0x3db65105	0.08902172
147	0xbc39862f	-0.011323496
148	0x3e87f788	0.2655604
149	0x3edb4caf	0.42831942
150	0xbe275076	-0.16339287
151	0x3e22d899	0.15902938
152	0xbd65e10a	-0.056122817
153	0xbdd5894b	-0.10426577
154	0xbea73c86	-0.32663363
155	0xbe6fa180	-0.23401451
156	0xbe32638d	-0.17420788
157	0xbdc3decb	-0.09563979
158	0x3e1f2747	0.15542327
159	0xbdf9b2b7	-0.1219229
160	0xbe499d07	-0.19688807
161	0x3d8bb12f	0.068209045
162	0x3dfeffbd	0.12451122
163	0x3e421f2c	0.18957204
164	0xbe127054	-0.14300662
165	0xbc3a5b4a	-0.011374304
166	0xbdc0e628	-0.09418899
167	0xbd895744	-0.06706098
168	0xbe45345f	-0.19258259
169	0xbe1f6296	-0.15564951
170	0xbdbf5e7b	-0.093441926
171	0x3d7a864f	0.061163243
172	0x3ccc6e6b	0.024954995
173	0x3dd942b3	0.10608425
174	0x3e8afdcf	0.27146766
175	0x3e23227e	0.15931126
176	0x3e95a451	0.29226926
177	0x3e49aab4	0.19694024
178	0xbd87a559	-0.066233344
179	0x3e86b40c	0.2630924
180	0xbe4cdfa5	-0.20007189
181	0xbe191d4b	-0.1495258
182	0xbee67326	-0.45009726
183	0xbeda8e25	-0.42686573
184	0xbed2585c	-0.41083038
185	0x3d86ac75	0.06575862
186	0xbeb15a91	-0.3463941
187	0xbefe0f48	-0.49621034
188	0xbe9a6271	-0.3015323
189	0xbe8d1869	-0.27557686
190	0x3e80e0d1	0.2517152
191	0x3ddf32b6	0.10898344
192	0x3ddc613a	0.10760732
193	0x3e5088da	0.20364705
194	0x3e9c8e10	0.30577135
195	0x3b8297e6	0.003985393
196	0x3ef6721c	0.48133934
197	0x3f2f1b21	0.6840077
198	0x3f181eff	0.59422296
199	0x3daa7016	0.0832216
200	0xbce6569a	-0.028117467
201	0xbe1083e5	-0.14112814
202	0x3e990e09	0.2989352
203	0x3e0f3a48	0.13987076
204	0x3e068d52	0.13139847
205	0xbdb20812	-0.086929455
206	0xbe03d386	-0.12873659
207	0xbd74747c	-0.0596814
208	0x3e649a89	0.22324575
209	0x3e8e10ba	0.27747136
210	0xbde373be	-0.111060604
211	0xbdef36af	-0.11680352
212	0xbebe3620	-0.3715067
213	0x3e2f1609	0.1709825
214	0x3eda9a39	0.42695788
215	0x3cd8e934	0.026478387
216	0xbd327e28	-0.043577343
217	0xbeb63e03	-0.35594186
218	0xbdfe799e	-0.124255404
219	0x3ef11658	0.4708736
220	0xbeb219d5	-0.34785333
221	0xbd5abf36	-0.05340501
222	0xbec66c44	-0.38754475
223	0xbe957816	-0.2919318
224	0x3e8e5443	0.27798662
225	0xbb359d32	-0.0027712104
226	0x3e15346f	0.14570783
227	0x3ebfa287	0.37428686
228	0x3ec3bc00	0.3822937
229	0x3ebfd906	0.37470263
230	0x3d33ba20	0.043878675
231	0x3c30f80e	0.010801328
232	0x3ed9ac4b	0.42514262
233	0x3e4f6f75	0.20257361
234	0x3e1b9606	0.15193948
235	0xbd8ba760	-0.068190336
236	0xbe1e02c8	-0.15430748
237	0x3e24eaa0	0.16105127
238	0x3e4996d5	0.19686444
239	0xbe094741	-0.13406087
240	0xbec365dc	-0.3816365
241	0xbe4657fe	-0.19369504
242	0xbe287ea3	-0.16454558
243	0xbe8685d0	-0.26273966
244	0xbe89157d	-0.26774207
245	0xbe454c4b	-0.19267385
246	0xbefaf17a	-0.49012357
247	0xbeff9767	-0.49920198
248	0xbed3242f	-0.41238543
249	0x3d2e4a0a	0.042551078

conv1.bias f4 [10]
0	0x3ddfc43f	0.10926103
1	0xbf031b94	-0.51213956
2	0xbe98c672	-0.29838902
3	0x3e4fc1fe	0.20288846
4	0x3e6d815b	0.23193876
5	0xbe50eac9	-0.20402063
6	0x3e3ef329	0.18647446
7	0xbdf0f43f	-0.11765336
8	0xbe470e28	-0.19438994
9	0xbdbe9c27	-0.093071274

conv2.weight f4 [20, 10, 5, 5]
0	0xbbd3e3ac	-0.0064663496
1	0xbc72ec8d	-0.014826906
2	0xbdf012e6	-0.117223546
3	0x3d4e6eaa	0.050398506
4	0x3d53389e	0.051567666
5	0xbd7f6ae4	-0.0623578
6	0x3d131ed3	0.03591807
7	0xbd89d2eb	-0.067296825
8	0x3d1f6b0b	0.038920444
9	0xbd0ed6f0	-0.03487295
10	0xbc99bfd0	-0.018768221
11	0xbd229ecd	-0.039702225
12	0xbd5f88ea	-0.05457393
13	0x3d6ceebc	0.057844862
14	0x394d53b9	0.00019581513
15	0xbdaf2535	-0.085520186
16	0xbdd56943	-0.10420468
17	0x3c3b5903	0.011434796
18	0x3cc3c220	0.023896277
19	0x3d342c08	0.043987304
20	0xbb75e8d7	-0.0037522817
21	0x39dc3393	0.00042000096
22	0x3dbfa91b	0.09358426
23	0x3d7784a9	0.06042925
24	0x3b538b64	0.0032279128
25	0x3da61bdc	0.081107825
26	0xbdb6e061	-0.08929516
27	0xbd3ebd76	-0.046567403
28	0xbd2b0178	-0.041749448
29	0xbbf3ea89	-0.0074437303
30	0x3d71f17e	0.059068196
31	0xbe175227	-0.14777432
32	0xbba5aefb	-0.0050562597
33	0x3cf9e007	0.030502332
34	0x3be938ba	0.007117358
35	0x3ca563da	0.020189214
36	0xbd8d60df	-0.06903242
37	0x3e0cb759	0.13741817
38	0x3d17980d	0.03701024
39	0x3d1d2df9	0.03837392
40	0x3c92c759	0.017917322
41	0x3d584427	0.05279937
42	0x3e51a9c0	0.2047491
43	0x3cc52ed8	0.024070188
44	0x3e03efbb	0.12884419
45	0x3d3db0f7	0.046311345
46	0x3e1b932c	0.1519286
47	0x3e2c8374	0.1684702
48	0x3d624be4	0.055248156
49	0x3e5c7a3e	0.21531007
50	0x3d4d31ad	0.050096203
51	0xbd6d3493	-0.057911467
52	0xbd138f20	-0.036025167
53	0x3c5c5e2b	0.013450186
54	0x3dbb38c4	0.091416866
55	0xbdd377bb	-0.10325571
56	0x3c55cb91	0.013049022
57	0x3e7b759b	0.24556582
58	0x3e7b35d2	0.2453225
59	0x3e12a888	0.14322102
60	0xbdc0db7e	-0.09416865
61	0x3e1fa79d	0.15591283
62	0x3d3c39e4	0.045953646
63	0xbb0056f0	-0.0019583069
64	0x3d0d1e54	0.03445275
65	0xbd3fdb5b	-0.046840053
66	0xbcb1eff0	-0.021720856
67	0xbe1e402d	-0.15454169
68	0xbe3df40e	-0.1855013
69	0xbda83b58	-0.08214444
70	0x3cf3ad26	0.02974565
71	0xbc9d373f	-0.019191382
72	0xbe2a7f88	-0.16650212
73	0xbd931052	-0.07180847
74	0xbd805129	-0.0626548
75	0x3d3c8925	0.04602923
76	0xbc950493	-0.018190658
77	0xbc1ec1bc	-0.009689745
78	0xb93e69a7	-0.0001815917
79	0xbd0c1ef2	-0.0342092
80	0xbd1ed87d	-0.038780678
81	0xbd8188b1	-0.063249
82	0xbdb894ce	-0.09012757
83	0x3b0bbe6f	0.0021323224
84	0xbd584d82	-0.052808292
85	0xbd3656b6	-0.044516288
86	0xbce3fbab	-0.027829966
87	0xbd95b699	-0.07310218
88	0xbd9884fe	-0.07447241
89	0xbc90e895	-0.017689029
90	0x3d8cb3c7	0.06870227
91	0x3c9ed690	0.01938942
92	0xbd559519	-0.052144144
93	0x3c8b3e6b	0.016997537
94	0x3dd310e8	0.10305959
95	0x3c09be1c	0.008407142
96	0x3d764c73	0.0601315
97	0x3d09bf94	0.03362997
98	0x3d2a8ce6	0.041638277
99	0x3d40dad7	0.047083702
100	0x3c95ce19	0.018286752
101	0xbe8605d1	-0.26176313
102	0xbe64f2fb	-0.22358315
103	0xbd21d9a4	-0.0395142
104	0x3e07127d	0.13190646
105	0xbe385977	-0.18002878
106	0xbe856a69	-0.26057747
107	0x3c514c0b	0.012774478
108	0x3d4b5cd5	0.04964908
109	0xbaa7091d	-0.0012743805
110	0xbeafa978	-0.34308982
111	0xbc5d106b	-0.013492684
112	0x3d696718	0.056983083
113	0xbd81474e	-0.063124284
114	0xbd3a5eb0	-0.045500457
115	0xbe8f201c	-0.27954185
116	0xbd643630	-0.05571574
117	0x3e2d7cc2	0.16942123
118	0xbd431961	-0.047631625
119	0xbc81ccba	-0.015844692
120	0xbdc74abb	-0.097310506
121	0xbdb77ab0	-0.08958948
122	0x3d55a002	0.05215455
123	0xbd10e2a7	-0.035372403
124	0xbe182cb2	-0.148608
125	0xbd28d917	-0.041222658
126	0xbd8edf0a	-0.06976135
127	0xbd89941f	-0.06717705
128	0xbdebaace	-0.11507188
129	0xbcf67a16	-0.030087512
130	0xbde62775	-0.112379946
131	0xbc458c2b	-0.012057344
132	0x3e291967	0.16513596
133	0x3e4c3e65	0.19945677
134	0x3e246dda	0.1605753
135	0xbac52e07	-0.0015043624
136	0x3e5cc086	0.21557817
137	0x3e1c8159	0.15283717
138	0x3e0df4f6	0.13862976
139	0xbdb8b1c8	-0.09018284
140	0xbd2dc00b	-0.042419475
141	0x3e52a669	0.20571293
142	0x3cd29abe	0.025708552
143	0xbda24708	-0.079237044
144	0xbe0c2eba	-0.136897
145	0x3b2bf0a9	0.0026235974
146	0x3d9b6549	0.07587678
147	0xbdfd007a	-0.123536065
148	0xbcec03d9	-0.028810428
149	0xbe8adb76	-0.2712056
150	0xb8518355	-4.9951796e-05
151	0x3d03ed70	0.03220886
152	0x3d418521	0.047246102
153	0xbcc566ac	-0.02409681
154	0x3d397927	0.045281556
155	0x3d217988	0.03942254
156	0xbd3cc4a9	-0.046085987
157	0x3d8efa56	0.069813415
158	0xbc721741	-0.014776052
159	0xbcd36935	-0.025807003
160	0xbd736273	-0.05942006
161	0x3d99d568	0.07511407
162	0x3cc08b3c	0.023503892
163	0x3d86ee77	0.06588452
164	0xbbb34a10	-0.0054714754
165	0x3c0e85d4	0.008698899
166	0x3c296612	0.010339277
167	0xbc74f526	-0.014951026
168	0x3cfc1c64	0.030775256
169	0xbb2c3dc6	-0.0026281937
170	0x3a95fae5	0.001144257
171	0x3bc343ab	0.0059589944
172	0x3d6188fc	0.05506228
173	0x3cda3575	0.026636818
174	0x3c873cf0	0.01650855
175	0xbda1bbb3	-0.07897129
176	0x3dca1c6b	0.098687015
177	0x3dbb3d94	0.091426045
178	0x3db26c98	0.08712119
179	0x3dbc37df	0.09190344
180	0xbd00de24	-0.03146185
181	0x3dfe7142	0.12423946
182	0xbdbeb8e5	-0.093126096
183	0xbce460d7	-0.027878208
184	0x3cd59c28	0.026075438
185	0xbc6f222f	-0.014595552
186	0xbded8670	-0.115979075
187	0xbd87ffe9	-0.06640608
188	0x3b16cae3	0.0023009114
189	0x3d542b87	0.051799323
190	0xbc021ebc	-0.007941898
191	0xbe09f6e8	-0.13473094
192	0x3d054a68	0.032541662
193	0x3d95dbaa	0.07317288
194	0x3df75666	0.12077026
195	0x3e0492e6	0.12946662
196	0xbd0f281e	-0.034950368
197	0x3cb1a115	0.021683255
198	0x3d7d2218	0.061800092
199	0xbdf2ffb0	-0.11865175
200	0xbc4f050a	-0.012635479
201	0xbd60e959	-0.054910038
202	0x3d4777ee	0.04869836
203	0x3bd9b73a	0.0066441568
204	0xbd144715	-0.0362006
205	0x3c6cee62	0.014461132
206	0xbdc4b5b1	-0.096049674
207	0xbd7e78ff	-0.06212711
208	0xbae62f76	-0.0017561752
209	0xbbdddec4	-0.0067709405
210	0x3d561c6b	0.052273195
211	0x3c8ca1df	0.01716703
212	0x3da4c220	0.08044839
213	0x3db26f70	0.08712661
214	0x3cd4b896	0.025966924
215	0x3ddfbaf7	0.109243326
216	0x3bce6dea	0.006299724
217	0x3d025db7	0.031827655
218	0x3e059b05	0.13047417
219	0xbd67ce8e	-0.05659347
220	0x3c3e173a	0.011602217
221	0x3c2b5447	0.010457105
222	0x3d371f14	0.044707373
223	0x3d875d3e	0.066095814
224	0x3c060326	0.008179462
225	0x3dfb2739	0.122633405
226	0x3d0f7c14	0.03503044
227	0x3df1b3a8	0.11801845
228	0xbd4f46d9	-0.050604675
229	0xbd515832	-0.0511095
230	0x3cfb24ee	0.030657258
231	0xbda75ea9	-0.08172352
232	0x3aefb1f7	0.0018287291
233	0xbddeab20	-0.10872483
234	0xbc8f1311	-0.017465146
235	0xbc87ccd3	-0.01657716
236	0x3dcf883b	0.10133406
237	0xbda6932f	-0.08133542
238	0xbdc5475c	-0.09632751
239	0x3cd34b80	0.025792837
240	0xbc509342	-0.0127304215
241	0xbc868b5b	-0.016423872
242	0xbe0ffba5	-0.14060839
243	0x3c01384d	0.007886958
244	0x3dce494d	0.10072575
245	0xbdf953c4	-0.1217418
246	0xbe03e05a	-0.12878552
247	0xbda3b94d	-0.07994328
248	0x3dc70b8d	0.09719
249	0x3ba6cae5	0.005090105
250	0xbd222ff4	-0.039596513
251	0x3d522481	0.051304344
252	0xbd7f4d9c	-0.062329873
253	0x3cbb8236	0.022889238
254	0x3c94cbc2	0.018163566
255	0xbd811d4b	-0.06304415

conv2.bias f4 [20]
0	0x3d178252	0.036989518
1	0x3c983918	0.018581912
2	0x3c9f17a1	0.019420447
3	0xbdac5882	-0.08415319
4	0xbe06b693	-0.13155584
5	0x3d2c279c	0.042029962
6	0xbd49fc26	-0.049312733
7	0xbd01a5ac	-0.031652138
8	0xbe1b7f0d	-0.15185185
9	0xbd85a1ae	-0.065249786
10	0xbcb9f16e	-0.02269813
11	0xbdcfc042	-0.10144092
12	0xbe21891c	-0.1577496
13	0x3d4163c5	0.04721429
14	0xbe04ab97	-0.12956081
15	0xbe1923e4	-0.14955097
16	0xbd861c94	-0.065484196
17	0xbe6d4048	-0.23169053
18	0x3d673bf5	0.056453664
19	0x3e87d0aa	0.26526386

fc1.weight f4 [50, 320]
0	0xbe41e2e3	-0.18934207
1	0xbd2b93e0	-0.04188907
2	0x3d8ecce2	0.06972672
3	0x3d81a9dd	0.06331227
4	0x3cf87b78	0.030332312
5	0x3ca68397	0.020326419
6	0x3dbb4852	0.091446534
7	0x3d19c38a	0.037539996
8	0x3d054dc5	0.03254487
9	0x3de7567a	0.11295791
10	0xbc2a10eb	-0.01038001
11	0x3d98a2b7	0.074529104
12	0x3b0368ee	0.0020051557
13	0x3d41a126	0.047272824
14	0x3d8c3e62	0.06847836
15	0x3d82d675	0.06388561
16	0x3d342ee9	0.04399005
17	0x3d54c257	0.05194315
18	0xbd0694b8	-0.032856673
19	0x3d2b7195	0.041856367
20	0xbd5580e7	-0.052124884
21	0xbbc83184	-0.0061094183
22	0x3dcc9eea	0.09991248
23	0x3cc3e6a8	0.023913696
24	0x3de24fd2	0.11050381
25	0xbd935ca4	-0.07195404
26	0x3daa922a	0.0832866
27	0xbca9f0b8	-0.020744666
28	0x3ca7789b	0.020443251
29	0xbdec6804	-0.11543277
30	0xba3d66ec	-0.00072251144
31	0xbd4a5c0d	-0.049404193
32	0xbd440413	-0.047855448
33	0xbca134be	-0.01967847
34	0xbdb9ad2d	-0.09066234
35	0xbd7bf73b	-0.061515074
36	0xbd705bbe	-0.058681242
37	0xbc9d4490	-0.019197732
38	0x3d5bc77e	0.053657047
39	0x3d84c594	0.064829975
40	0x3dd3d12e	0.10342632
41	0xbcd4a28f	-0.02595642
42	0xbbd85c2e	-0.0066027856
43	0xbcd3d327	-0.025857521
44	0xbd205349	-0.039141927
45	0xbcccc0cf	-0.024994282
46	0x3e0f860e	0.14015982
47	0xbd9a7953	-0.07542672
48	0xbd1ea669	-0.03873292
49	0x3daee61d	0.085399844
50	0x3de1712c	0.11007914
51	0x3dde5fbb	0.10858103
52	0xbd10964a	-0.035299577
53	0x3ccd2d79	0.025046097
54	0xbdafba62	-0.085804716
55	0xbc881989	-0.016613739
56	0xbc5f6e4c	-0.013637137
57	0xbe04daf0	-0.12974143
58	0xbe2ddf30	-0.1697967
59	0xbe089f4b	-0.13342015
60	0xbd2098bf	-0.03920817
61	0xbdf726e7	-0.12067967
62	0xbe108ada	-0.14115468
63	0xbe331a05	-0.17490394
64	0xbd49b261	-0.04924238
65	0x38afd646	8.384562e-05
66	0xbc0d2dbb	-0.00861686
67	0x3c8431df	0.016137062
68	0xbdafa057	-0.08575504
69	0x3d21deba	0.03951905
70	0xbc0ac5e4	-0.008470032
71	0xbd3695fd	-0.044576634
72	0x3cdfb059	0.027305769
73	0xbd16c3d8	-0.036807865
74	0xbd056136	-0.03256341
75	0x3d5e9f0f	0.05435091
76	0x3c882fed	0.016624415
77	0x3e16122c	0.1465537
78	0x3c43de65	0.011954878
79	0xbb9d14f7	-0.004793759
80	0xbdadaf63	-0.08480718
81	0xba080c8a	-0.0005189857
82	0x3d64978e	0.055808596
83	0xbc4f27af	-0.012643739
84	0xbd2912a4	-0.041277543
85	0x3db923d4	0.09040037
86	0xbca595ed	-0.020213092
87	0xbc2833dd	-0.010266271
88	0x3cc09bc4	0.023511775
89	0x3d4a53f8	0.049396485
90	0xba9c3de2	-0.0011920298
91	0x3c035872	0.0080166925
92	0x3cff65d2	0.031176481
93	0x3e470960	0.1943717
94	0x3e063efa	0.13109961
95	0xbb860e8e	-0.0040910905
96	0xbdb7b418	-0.08969897
97	0x3d6e5088	0.05818227
98	0x3dd8acf2	0.10579862
99	0x3c7214d5	0.014775475
100	0x3e1e1c83	0.15440564
101	0x3bf4db24	0.0074724127
102	0xbd7df6eb	-0.062003057
103	0xbd014c8f	-0.031567153
104	0xbcf5343b	-0.029932132
105	0xbd875e46	-0.06609778
106	0x3d50b8c1	0.050957445
107	0xbd7755ef	-0.060384687
108	0x3e2988cc	0.1655609
109	0x3c627fa8	0.013824381
110	0xbcaaf872	-0.020870421
111	0xbd43325c	-0.04765545
112	0xbd60e010	-0.054901183
113	0xbe0f4a05	-0.1399308
114	0xbd563a60	-0.052301764
115	0xbba48e84	-0.005021872
116	0xbca69a05	-0.020337114
117	0xbcd3ea59	-0.025868582
118	0x3c05b0ce	0.008159829
119	0x3d827680	0.06370258
120	0x3d39de2c	0.045377895
121	0xba92602e	-0.001116758
122	0xbcb66fa6	-0.022270035
123	0x3bac6e64	0.005262183
124	0xbd696edc	-0.05699049
125	0xbd84c153	-0.06482186
126	0x3e029478	0.12751949
127	0xbcafbd8e	-0.021452691
128	0xba135b88	-0.0005621244
129	0x3c3a740a	0.011380205
130	0x3d46e481	0.048557762
131	0xbc8910e2	-0.016731683
132	0xbd01fa9e	-0.031733148
133	0x3cb7c707	0.02243377
134	0x3d017def	0.03161424
135	0xbba51974	-0.0050384346
136	0x3d9c12d1	0.076207764
137	0xbd3b77b2	-0.045768447
138	0xbcff248e	-0.03114536
139	0xbc6d1d39	-0.014472299
140	0xbd962ae0	-0.073323965
141	0xbd7fba60	-0.0624336
142	0xbdd09515	-0.10184685
143	0xbdc17419	-0.09445972
144	0xbdc3cd79	-0.09560675
145	0xbda6e2ff	-0.08148765
146	0xbd15bd3b	-0.036557417
147	0x3b033617	0.0020021254
148	0x3cb4099b	0.021977236
149	0x3d7b5dec	0.061368868
150	0x3d99c0dd	0.07507489
151	0xbd81183f	-0.06303453
152	0x3d56b255	0.052416164
153	0xbcdb6170	-0.02677986
154	0xba31acf7	-0.0006777788
155	0x3c6ea3d5	0.014565428
156	0x3e24723d	0.16059203
157	0x3e37aff2	0.17938212
158	0x3df4e562	0.11957814
159	0xbd3875af	-0.045034107
160	0xbd572a96	-0.052530847
161	0xbcb8dd1c	-0.02256637
162	0xbd9afbab	-0.07567533
163	0xbd0940d8	-0.033509105
164	0x3d40ef9b	0.047103506
165	0xbd16bfdc	-0.036804065
166	0x3d363068	0.044479758
167	0x3d215214	0.039384916
168	0xbdaf085d	-0.08546517
169	0x3d54bbf7	0.05193707
170	0x3caad30a	0.020852584
171	0x3df7f7e0	0.12107825
172	0x3e11b042	0.14227393
173	0x3e256685	0.1615239
174	0x3db838b7	0.089951925
175	0xbcb08983	-0.021549946
176	0xbd564e33	-0.05232067
177	0xbe0c4721	-0.13699009
178	0xbdda981e	-0.10673545
179	0xbdc9346b	-0.09824451
180	0xbe1ab8a8	-0.15109503
181	0xbd1a94b6	-0.037739478
182	0x3d2f3b79	0.042781327
183	0xbd1ac7a0	-0.037788033
184	0x3c0cb7f8	0.008588783
185	0x3cb86cd5	0.022512833
186	0xbd3c5828	-0.04598251
187	0xbc4000e2	-0.0117189605
188	0x3d95b899	0.073106
189	0x3dd3053f	0.10303735
190	0x3da0eec9	0.07858045
191	0x3d8a8178	0.067629755
192	0xbd3c8b18	-0.046031088
193	0x3da3f9ab	0.08006605
194	0x3d2026d1	0.03909952
195	0x3d324c1a	0.043529607
196	0x3d1bda07	0.038049724
197	0x3d7a5ada	0.0611218
198	0x3c8d2be6	0.017232846
199	0x3cdba3fb	0.02681159
200	0x3d65053a	0.055913188
201	0xbdb779b0	-0.08958757
202	0xbd96d636	-0.07365076
203	0xbc9b4618	-0.018954322
204	0x3d2ed8c9	0.04268721
205	0x3d2f80c1	0.0428474
206	0xbc9ab8f6	-0.018887024
207	0xbd6a3a65	-0.057184596
208	0xbd91cb7a	-0.07118888
209	0x3d5f9015	0.054580767
210	0x3e1a356c	0.15059441
211	0x3e19ec51	0.15031554
212	0x3d80b8b2	0.06285228
213	0x3d28c33e	0.041201822
214	0xbb6271e6	-0.0034552752
215	0x3c879a9c	0.016553216
216	0xbd8fd6cf	-0.07023393
217	0xbd0a35e2	-0.033742793
218	0xbc2c8ca4	-0.010531578
219	0xbd216122	-0.039399274
220	0xbda4a8a8	-0.08039981
221	0xbd7893ac	-0.060687706
222	0xbce7fdfa	-0.028319348
223	0xbdcce2ad	-0.100041725
224	0x3d611e28	0.0549604
225	0x3c81b1fc	0.01583194
226	0xbdc02930	-0.09382856
227	0xbd0d0292	-0.03442628
228	0x3aa3ac52	0.0012487269
229	0xbd183e70	-0.03716892
230	0xbd841120	-0.06448579
231	0x3dabb5fd	0.08384321
232	0xbd4829f6	-0.048868142
233	0x3c88f63d	0.016718978
234	0x3d8d5837	0.06901591
235	0xbd1716bf	-0.036886927
236	0xbb3337db	-0.0027346525
237	0xbcfb5ab2	-0.030682895
238	0xbd0a2660	-0.033728004
239	0xbdea9c42	-0.11455585
240	0x3d31c5b9	0.043401454
241	0x3d26ec9f	0.040753003
242	0xbd8ef29a	-0.06979866
243	0xbc0eb9fa	-0.008711332
244	0xbd12495b	-0.03571449
245	0x3d1cc6a7	0.038275387
246	0xbc953f60	-0.018218696
247	0x3c6b8674	0.014375318
248	0x3c87f42e	0.016595926
249	0xbd81273e	-0.06306313
250	0xbcf06d6c	-0.029349051
251	0xbdb9feaa	-0.090817764
252	0xbd62767c	-0.055288777
253	0xbca9a771	-0.020709725
254	0xbe041d23	-0.1290174
255	0xbe08b706	-0.13351068

fc1.bias f4 [50]
0	0x3c52ad1a	0.012858653
1	0x3a3f3d03	0.0007295163
2	0xbbbfb5a4	-0.0058505107
3	0xbac3d2fd	-0.0014940199
4	0xb97ee834	-0.0002430983
5	0xbe023810	-0.12716699
6	0xbe01b01e	-0.1266484
7	0xbd381e5d	-0.04495083
8	0xbd6e6c2a	-0.058208622
9	0x3d206c46	0.039165758
10	0xbd834c2a	-0.064110115
11	0xbcd48028	-0.025940016
12	0xbdb06f1f	-0.08614945
13	0xbd837336	-0.06418459
14	0xbc07389d	-0.008253244
15	0xbc952197	-0.018204493
16	0x3d4ef6df	0.050528403
17	0xbb186a7f	-0.0023256836
18	0x3bbc0a2c	0.0057385173
19	0xbd3e28bf	-0.046425577
20	0xbd7cfa87	-0.06176236
21	0xbb750c1d	-0.0037391253
22	0xbd83644a	-0.06415613
23	0x3d09c102	0.033631332
24	0x3ca50856	0.020145576
25	0xbde3a903	-0.11116221
26	0xbd99a2c8	-0.07501751
27	0xbd8a5328	-0.06754142
28	0xbd5479d9	-0.051874015
29	0xbd8dcb19	-0.069235034
30	0xbcf4d164	-0.029885001
31	0x3bbc4343	0.005745323
32	0xbd80f430	-0.06296575
33	0xbd899aaa	-0.06718953
34	0xbd0ac029	-0.033874664
35	0x3c2de355	0.010613282
36	0xbd466d93	-0.048444342
37	0xbd7afa54	-0.061273888
38	0xbd4d1698	-0.050070375
39	0xbd23b955	-0.03997167
40	0xbd5a8f1f	-0.053359147
41	0xbd4ca79f	-0.049964543
42	0xbd8f0ac1	-0.06984473
43	0xbe235bc4	-0.15952975
44	0xbd0888da	-0.033333637
45	0xba15b348	-0.0005710614
46	0xbdb1179a	-0.0864708
47	0xbd52aad9	-0.051432464
48	0xbd9ea56d	-0.07746396
49	0xbba406cd	-0.0050056935

fc2.weight f4 [10, 50]
0	0x3d4e5eda	0.050383426
1	0xbcfbe65a	-0.030749489
2	0x39bb306c	0.00035703497
3	0x3d2c200d	0.042022754
4	0xbe870902	-0.2637406
5	0xbe282292	-0.16419438
6	0xbea736cd	-0.32658997
7	0xbd226b92	-0.03965337
8	0xbde778ef	-0.11302363
9	0xbe2d84d5	-0.16945203
10	0xbeb3c5fd	-0.3511199
11	0xbe0f9406	-0.1402131
12	0x3db13892	0.08653368
13	0x3e7beba2	0.24601606
14	0x3eb57021	0.3543711
15	0x3ea146a0	0.31499195
16	0x3df52e63	0.11971738
17	0x3e36a2bf	0.1783552
18	0xbb9b6b8e	-0.004743046
19	0xbd0323e5	-0.032016654
20	0xbe82c39d	-0.25539866
21	0xbe3696b6	-0.17830929
22	0xbc4335ac	-0.011914652
23	0xbe84d6c7	-0.25945112
24	0xbd42eb78	-0.04758784
25	0xbeb72246	-0.35768336
26	0xbdb365e4	-0.087596685
27	0xbed74eb5	-0.42052236
28	0x3db5a05b	0.08868476
29	0x3ee85b6a	0.45382243
30	0xbe9bfcd8	-0.30466342
31	0x3dec9ec3	0.11553719
32	0x3f1ae6d3	0.6050846
33	0x3e76802a	0.24072328
34	0xbe023750	-0.12716413
35	0x3e97e3d6	0.29666013
36	0xbc5d7f19	-0.013519072
37	0x3d0ad1d6	0.03389152
38	0xbcd11508	-0.025522724
39	0xbe5bf5aa	-0.21480432
40	0xbe898a92	-0.26863533
41	0xbeea1f24	-0.45726883
42	0x3e2539ac	0.16135281
43	0xbdbb6d57	-0.09151714
44	0xbc61b7e4	-0.013776753
45	0x3e8d8604	0.27641308
46	0xbd8cf827	-0.06883269
47	0xbdba69fa	-0.09102245
48	0x3decec2b	0.11568483
49	0xbcc2ac27	-0.02376373
50	0x3e865a3a	0.26240712
51	0x3e906b8c	0.28207052
52	0xbe9cf08a	-0.30652267
53	0x3e958725	0.2920467
54	0x3df061fa	0.117374375
55	0x3e745086	0.23858842
56	0xbe63fbbb	-0.22263996
57	0x3e0076ad	0.12545271
58	0xbc3fbef5	-0.011703243
59	0xbe306922	-0.17227605
60	0x3ecd5af0	0.40108442
61	0x3ee36274	0.4441105
62	0xbd1a684b	-0.037697118
63	0xbe3ff2ef	-0.18745016
64	0x3d7c7628	0.06163612
65	0xbeea6e8b	-0.45787463
66	0x3ec5e2a5	0.3864948
67	0x3e00bdc8	0.12572396
68	0xbe79d731	-0.24398495
69	0xbd69f238	-0.057115763
70	0xbebec6c6	-0.37261027
71	0x3c472435	0.0121546285
72	0x3d26522f	0.04060572
73	0x3e8badd8	0.2728107
74	0x3e957fc6	0.29199046
75	0xbe95ad5d	-0.29233828
76	0xbec50303	-0.3847886
77	0x3deac294	0.11462894
78	0xbd1cf964	-0.038323775
79	0x3e3702b8	0.17872131
80	0x3eafce94	0.34337294
81	0x3e2f8564	0.17140728
82	0xbde053e0	-0.10953498
83	0xbe81c8c1	-0.25348476
84	0x3e5bd298	0.21467054
85	0x3e06eec6	0.13177022
86	0xbe9b5589	-0.30338696
87	0xbe7b3358	-0.24531305
88	0x3e93154f	0.28727195
89	0x3dcbf39c	0.09958574
90	0xbe89c842	-0.26910597
91	0x3de2d8e1	0.110765226
92	0xbe664e60	-0.22490835
93	0xbe60d749	-0.21957125
94	0x3e6bbad4	0.23020488
95	0xbe2a113a	-0.16608134
96	0xbdb6b27e	-0.089207634
97	0x3e921db8	0.285383
98	0xbe982244	-0.29713643
99	0xbc928f1e	-0.01789051
100	0xbec1f521	-0.3788233
101	0xbe4f9526	-0.2027174
102	0xbe2e688b	-0.17032067
103	0xbe1e817b	-0.1547908
104	0xbdebda9f	-0.11516308
105	0x3ea7d8d1	0.32782605
106	0x3ece1375	0.4024922
107	0xbc93a747	-0.0180241
108	0x3eee257a	0.46512967
109	0x3e14229a	0.14466324
110	0x3d2e7869	0.0425953
111	0x3e6e0c7a	0.23246947
112	0x3e0666d5	0.13125165
113	0x3ecd7efa	0.40135938
114	0xbdc2d8dc	-0.09514019
115	0x3da95899	0.08268852
116	0x3c38eec6	0.011287397
117	0xbcc58474	-0.02411101
118	0xbe6c0ea1	-0.23052455
119	0xbe7aa358	-0.24476373
120	0xbdea4e88	-0.1144076
121	0x3db6cabf	0.089253895
122	0xbd907d0e	-0.07055102
123	0xbead0cc1	-0.33798793
124	0xbd819dbc	-0.063289136
125	0xbe11363f	-0.1418085
126	0xbe2a9396	-0.16657862
127	0xbc218ba2	-0.009859951
128	0xbe8d01f2	-0.27540547
129	0x3d94227c	0.0723314
130	0xbe601269	-0.21882023
131	0xbe7ebf7b	-0.24877732
132	0x3dee96a4	0.11649826
133	0xbe79cede	-0.2439532
134	0x3e1ffcbb	0.15623753
135	0x3e8b9541	0.2726231
136	0x3dfb3e66	0.12267761
137	0xbe29d15c	-0.1658377
138	0x3e67751c	0.22603267
139	0x3d66d3f5	0.05635448
140	0x3e212557	0.157369
141	0x3e802183	0.25025567
142	0xbe2770b1	-0.16351582
143	0xbcae1a55	-0.02125279
144	0x3d9ad2f2	0.07559766
145	0x3e43c66a	0.19118658
146	0xbd24cc73	-0.04023404
147	0x3e513826	0.20431575
148	0xbeb9b223	-0.3626872
149	0x3ed7fde5	0.42185894
150	0xbd35271a	-0.044226743
151	0x3e978de6	0.29600447
152	0x3e81bba7	0.2533848
153	0xbe09de7e	-0.1346378
154	0x3e238f5d	0.15972658
155	0xbe862e20	-0.26207066
156	0x3d180765	0.037116427
157	0x3e060704	0.13088614
158	0xbd848f7f	-0.06472682
159	0x3c85dd7c	0.016340964
160	0xbe084581	-0.13307764
161	0x3e9e59e2	0.3092795
162	0xbe264b8b	-0.16239755
163	0xbd68b64f	-0.056814488
164	0x3cac666f	0.021044938
165	0xbd9b8803	-0.075943016
166	0xbe83228c	-0.25612295
167	0x3da785dd	0.08179829
168	0xbe9c6b44	-0.30550587
169	0x3eaabb95	0.3334624
170	0x3e2deddc	0.16985267
171	0x3eb4c870	0.35309172
172	0x3e42b5bb	0.19014637
173	0xbe51f636	-0.20504078
174	0xbe8578e0	-0.26068783
175	0xbe7cf379	-0.24702252
176	0x3e9f9c21	0.31173804
177	0xbe4515e8	-0.19246638
178	0x3e5fd913	0.21860151
179	0xbeb3ba90	-0.35103273
180	0xbede2e32	-0.4339462
181	0x3dd53705	0.10410885
182	0xbe60ee88	-0.21965992
183	0x3e56e0e1	0.20984222
184	0x3d1ca157	0.038239803
185	0x3d23f57d	0.040029038
186	0x3e1606f1	0.14651085
187	0x3e7a0abf	0.24418162
188	0xbea2e27e	-0.31813425
189	0x3b0a5197	0.002110576
190	0x3eacacf2	0.33725697
191	0x3edab600	0.4271698
192	0xbe7b6b38	-0.2455262
193	0x3e975185	0.29554382
194	0x3d9ad4d7	0.07560127
195	0xbd3f7d5a	-0.046750404
196	0xbd46ae8d	-0.04850631
197	0xbdba19db	-0.09086963
198	0xbe89e129	-0.26929596
199	0x3dfdb7a4	0.12388542
200	0xbd5ea61a	-0.054357626
201	0x3b137a72	0.0022503403
202	0x3c8f8528	0.017519549
203	0x3e2959db	0.16538183
204	0xbd160574	-0.036626294
205	0x3e7b51f1	0.24542977
206	0x3e8d3e1c	0.27586448
207	0xbe8d3be0	-0.27584743
208	0xbe20baba	-0.1569623
209	0xbe1f5fe0	-0.15563917
210	0x3e5ca4ad	0.21547194
211	0xbe0ae7ae	-0.13564941
212	0x3e92e883	0.28693017
213	0xbea8ecff	-0.32993314
214	0xbd9ed1e2	-0.07754876
215	0x3e94fec4	0.2910062
216	0xbe83b023	-0.2572032
217	0xbe005109	-0.12530912
218	0xbe05ba8a	-0.1305944
219	0xbe84ce0e	-0.25938457
220	0xbe0754b6	-0.13215908
221	0xbe6349f6	-0.22196183
222	0x3eaa764c	0.33293378
223	0x3ead0924	0.33796036
224	0x3b89662e	0.004193089
225	0x3ed42288	0.41432595
226	0x3a99e433	0.0011740982
227	0x3e080ba3	0.13285689
228	0x3d40f9fc	0.047113404
229	0xbd14b93f	-0.036309477
230	0x3e6de0ee	0.23230335
231	0x3d81f17b	0.06344887
232	0xbe7a9b5d	-0.24473329
233	0xbe857d96	-0.26072377
234	0xbe35a481	-0.17738535
235	0xbe688fae	-0.2271106
236	0x3e2f6c80	0.17131233
237	0x3e730aaf	0.23734544
238	0x3ddd3ddf	0.108028166
239	0xbe0994ff	-0.13435744
240	0xbed459ae	-0.4147467
241	0xbd4c708f	-0.04991203
242	0xbd7a76f5	-0.061148603
243	0xbe6c9554	-0.23103839
244	0xbe88f112	-0.26746422
245	0x3e2ce1fe	0.16883084
246	0xbe87a600	-0.26493835
247	0xbe65d7c9	-0.22445597
248	0x3ec857ca	0.39129478
249	0xbe1a4f27	-0.15069257
250	0x3e935c75	0.28781477
251	0xbdf0b071	-0.117524035
252	0x3d058cff	0.032605167
253	0xbdfeb734	-0.12437287
254	0x3dd1c347	0.10242324
255	0x3c693692	0.014234202

fc2.bias f4 [10]
0	0xbdb4b47f	-0.088234894
1	0xbdbf1314	-0.09329811
2	0x3cae84c9	0.021303551
3	0xbd1a6620	-0.03769505
4	0x3c71217e	0.014717458
5	0xbcdd20b1	-0.026993128
6	0xbd272e78	-0.0408158
7	0x3c2c87c5	0.010530417
8	0xbcb0e0fb	-0.021591654
9	0xbd14c471	-0.036320154
