MNIST/snapshots/oe_scratch/oe_scratch_epoch_9.pt (torch_old, 88724 bytes, 8 tensors)

conv1.weight f4 [10, 1, 5, 5]
-0.023704873 -0.3050227 -0.333169 -0.2662536 -0.38071346 0.18032409 -0.058984123 -0.15411344
-0.329658 -0.32908523 0.22674266 0.3450135 0.3089051 -0.019546913 -0.1327345 0.046706874
0.30937862 0.39275983 0.4760265 0.14223137 -0.19943689 -0.23013885 0.022024792 0.06902791
0.07202583 0.07479781 0.47560894 0.14563975 -0.42898396 -0.31287664 0.049427725 0.6069962
0.06306055 -0.5164007 -0.6457723 -0.037468474 0.83688354 -0.2322753 -0.36605102 -0.49084088
0.2710157 0.2826441 0.13326202 -0.23548083 -0.27532732 0.18156886 0.11865055 0.33201805
0.077042766 0.0075126276 -0.41143098 -0.42813218 -0.10595875 0.032616988 0.30008513 -0.210938
-0.19644962 0.13503574 0.5249919 0.15737765 -0.27916068 0.18902029 0.68404764 0.49983925
-0.35386512 0.043088518 0.25234947 0.4776448 -0.2422237 -0.49937192 0.21654388 0.07789036
0.041246075 -0.327993 -0.2263424 0.12785043 0.33025074 0.33841357 -0.06510605 0.21522678
-0.26161298 -0.11098897 0.122158624 0.041777164 0.17485301 -0.23588954 -0.26832345 0.081171684
-0.034923885 0.107122995 0.06561102 -0.2795345 -0.21064554 -0.124403775 -0.2691303 -0.0424924
0.005902395 -0.20933259 -0.28619426 -0.19405463 0.44977602 0.1163071 0.059052754 0.05738406
0.026529422 -0.02679281 0.29833508 -0.04609981 -0.038426057 0.065894365 -0.10817467 0.3824671
0.27796227 -0.112094365 0.07880628 0.1476369 0.27436662 0.26449546 0.22932374 0.0063637258
-0.15947482 -0.10806947 0.109020285 0.029842285 0.012089886 -0.33695096 -0.5885214 -0.4245413
0.083083056 0.29542145 -0.40175906 -0.07801659 0.2468552 0.43494603 0.11704046 0.1999592
0.2143829 0.08168318 0.032689426 -0.17495164 0.07623853 0.00020240771 -0.27244595 0.14884725
0.20085017 0.028155724 0.06288035 -0.02905118 0.24673256 0.37067235 -0.113662764 0.16153163
-0.08981682 -0.14052956 -0.32657465 -0.22193725 -0.18284824 -0.11328128 0.14290461 -0.10119022
-0.20369832 0.060702212 0.10262977 0.18494807 -0.10732733 0.013254932 -0.09074675 -0.06730582
-0.18383399 -0.13596798 -0.05377551 0.08861198 0.030328441 0.08871024 0.2827741 0.15938552
0.33943382 0.22693877 -0.049049668 0.27836886 -0.16347207 -0.07790719 -0.37146118 -0.3910214
-0.3600317 0.107831284 -0.31854102 -0.45906496 -0.28230265 -0.28210384 0.22136511 0.07965621
0.043417055 0.115868434 0.30579916 0.005470623 0.46426564 0.5901625 0.49136278 0.039806373
-0.16235268 -0.23917529 0.18712328 0.13860492 0.26242298 -0.19610566 -0.21845494 -0.20112595
0.13845009 0.38064715 -0.2610885 -0.25844443 -0.4580389 0.17290713 0.55108863 -0.14407967
-0.17398024 -0.4159932 -0.07559247 0.57608515 -0.4283812 -0.09879133 -0.41536355 -0.25140607
0.31857952 -0.043688215 0.10835231 0.35923097 0.3645572 0.45633963 0.03495473 -0.006486055
0.44674724 0.23432902 0.23151258 -0.082111895 -0.16592117 0.14060804 0.18054427 -0.15309127
-0.44417796 -0.2584412 -0.23482746 -0.2695941 -0.27236032 -0.24106592 -0.53823787 -0.5348771
-0.3742368 0.058462724
00000000: b930 c2bc ef2b 9cbe 2195 aabe 6452 88be
00000010: e0ec c2be e1a6 383e 5699 71bd eacf 1dbe
00000020: efc8 a8be dc7d a8be 3a2f 683e 9ca5 b03e
00000030: cf28 9e3e d920 a0bc 8eeb 07be b54f 3f3d
00000040: e066 9e3e d117 c93e bfb9 f33e 1aa5 113e
00000050: 2f39 4cbe 85a9 6bbe 566d b43c 815e 8d3d
00000060: 4782 933d 982f 993d 0483 f33e 9622 153e
00000070: c9a3 dbbe 5e31 a0be ba74 4a3d 1a64 1b3f
00000080: e425 813d d632 04bf 5551 25bf 8b78 19bd
00000090: 003e 563f 94d9 6dbe 0a6b bbbe 7f4f fbbe
000000a0: 92c2 8a3e bab6 903e d775 083e e321 71be
000000b0: b4f7 8cbe 30ed 393e 0fff f23d 45fe a93e
000000c0: 99c8 9d3d 7d2c f63b 15a7 d2be 2434 dbbe
000000d0: e700 d9bd 6499 053d c2a4 993e 2200 58be
000000e0: 172a 49be cf46 0a3e df65 063f 9b27 213e
000000f0: 26ee 8ebe 898e 413e bf1d 2f3f eeea ff3e
00000100: cf2d b5be 967d 303d f333 813e dc8d f43e
00000110: 7d09 78be adad ffbe aebd 5d3e fb84 9f3d
00000120: a5f1 283d b3ee a7be 4dc6 67be 39eb 023e
00000130: a016 a93e 8b44 ad3e 5256 85bd 6964 5c3e
00000140: 23f2 85be 2f4e e3bd 4d2e fa3d 881e 2b3d
00000150: ab0c 333e 078d 71be b161 89be 573d a63d
00000160: 590c 0fbd 4d63 db3d 125f 863d 251f 8fbe
00000170: 77b3 57be 68c7 febd 72cb 89be 830c 2ebd
00000180: e168 c13b 485b 56be 0e88 92be 42b6 46be
00000190: 0b49 e63e 6b32 ee3d 4de1 713d 8c0b 6b3d
000001a0: 3b54 d93c 987c dbbc 60bf 983e 28d3 3cbd
000001b0: a464 1dbd a0f3 863d ae8a ddbd bad2 c33e
000001c0: 1251 8e3e bb91 e5bd 3065 a13d 212e 173e
000001d0: c879 8c3e f36b 873e d8d3 6a3e cd86 d03b
000001e0: 5e4d 23be 8753 ddbd 0746 df3d cf77 f43c
000001f0: a814 463c d684 acbe 57a9 16bf 7a5d d9be
00000200: 7327 aa3d 7b41 973e 5db3 cdbe 29c7 9fbd
00000210: 9cc7 7c3e 3fb1 de3e e9b2 ef3d 1bc2 4c3e
00000220: 3187 5b3e 8349 a73d 59e5 053d 8626 33be
00000230: f222 9c3d 683d 5439 097e 8bbe 6a6b 183e
00000240: abab 4d3e d5a6 e63c 6ac7 803d befc edbc
00000250: 76a7 7c3e c4c8 bd3e 06c8 e8bd 8c68 253e
00000260: e2f1 b7bd fbe6 0fbe cb34 a7be 8543 63be
00000270: 923c 3bbe 0400 e8bd 9655 123e d13c cfbd
00000280: 4b96 50be e2a2 783d 8f2f d23d 0763 3d3e
00000290: 6ece dbbd 372b 593c 6fd9 b9bd a2d7 89bd
000002a0: fa3e 3cbe 313b 0bbe b643 5cbd 337a b53d
000002b0: 5a73 f83c b7ad b53d c4c7 903e f535 233e
000002c0: 45ca ad3e a362 683e 4ee8 48bd 5d86 8e3e
000002d0: 3965 27be ce8d 9fbd 2930 bebe f533 c8be
000002e0: 1356 b8be a6d6 dc3d cf17 a3be 900a ebbe
000002f0: f989 90be ea6f 90be 89ad 623e cc22 a33d
00000300: 15d6 313d 6e4c ed3d b591 9c3e e942 b33b
00000310: 3ab4 ed3e e414 173f e793 fb3e 020c 233d
00000320: c83f 26be 5eea 74be 3f9d 3f3e 73ee 0d3e
00000330: 4e5c 863e eccf 48be a7b2 5fbe f6f3 4dbe
00000340: dcc5 0d3e 2fe4 c23e 64ad 85be d452 84be
00000350: 1384 eabe 910e 313e 2514 0d3f 9f89 13be
00000360: e027 32be 10fd d4be 3ad0 9abd 517a 133f
00000370: c854 dbbe 1c53 cabd 88aa d4be 4cb8 80be
00000380: db1c a33e 6af2 32bd d1e7 dd3d 1fed b73e
00000390: 3ea7 ba3e 59a5 e93e b12c 0f3d f988 d4bb
000003a0: 0ebc e43e f2f3 6f3e a211 6d3e 482a a8bd
000003b0: 3de7 29be 8efb 0f3e 99e0 383e f5c3 1cbe
000003c0: 4b6b e3be 6852 84be 9c76 70be 3d08 8abe
000003d0: d072 8bbe fcd9 76be f5c9 09bf b5ed 08bf
000003e0: f79b bfbe 9c76 6f3d

conv1.bias f4 [10]
0.031343453 -0.5363724 -0.33300915 0.30126145 0.24367532 -0.20202146 0.14344226 -0.18479466
-0.21163684 -0.16109909
00000000: fe61 003d b44f 09bf 2d80 aabe f13e 9a3e
00000010: 0686 793e b7de 4ebe 87e2 123e d03a 3dbe
00000020: 54b7 58be 29f7 24be

conv2.weight f4 [20, 10, 5, 5]
-0.022779763 -0.050535016 -0.1292638 0.028628042 0.05547859 -0.05816565 0.025083613 -0.08508305
0.03573707 -0.0024406079 -0.022453424 -0.056949183 -0.052766997 0.06477161 0.030752532 -0.09088562
-0.10640369 0.02424131 0.04069694 -0.014442676 -0.037026417 -0.021663893 0.07002616 0.0459462
-0.05124431 0.013984577 -0.1104358 -0.016021011 -0.054102093 -0.040678903 0.045324214 -0.13130808
-0.009457293 0.026446754 -0.060855385 0.007512815 -0.077950984 0.0797678 0.01791528 -0.078426205
-0.007202819 0.03200902 0.15188195 0.01995164 0.010615561 0.015557995 0.15327922 0.19219
0.1068629 0.12285153 -0.010533115 -0.089740075 -0.04581883 0.018652081 0.09767913 -0.12580167
0.026049646 0.2807696 0.19370033 0.050951242 -0.12078557 0.11964899 0.090814255 -0.043681197
0.049578656 -0.060858406 0.0076045543 -0.11581358 -0.123799086 -0.007873689 0.08154181 -0.053400323
-0.08667643 -0.042115837 -0.07056555 0.010323432 -0.053456172 -0.048334233 -0.02352097 -0.046566453
-0.050958693 -0.0656283 -0.0721929 0.031541906 -0.030001985 -0.03521217 -0.04704826 -0.081633635
-0.046362415 0.002467127 0.041174017 -0.0073659173 -0.06158999 0.009130211 0.12078236 0.023574514
0.065119654 0.025841583 0.041209936 0.047108125 -0.10113746 -0.3113674 -0.19657524 -0.05256399
0.0720736 -0.20509942 -0.25304595 0.0053194687 0.09395006 0.045259867 -0.2954903 -0.043415055
0.08781571 -0.093875125 -0.10078521 -0.2579626 0.030513866 0.23743796 -0.05996335 -0.13557191
-0.097769834 -0.025209568 0.09696354 -0.016538883 -0.3244795 -0.049279332 -0.08244902 -0.07691484
-0.0790821 0.007960288 -0.0876361 0.057980135 0.13524999 0.19084604 0.12779157 0.017326133
0.18886499 0.13788001 0.086027525 -0.039269302 -0.08639701 0.15792441 0.012559825 -0.142642
-0.14024849 -0.004261006 0.034322623 -0.18237987 -0.09283241 -0.26611036 -0.006992341 0.036941078
0.059738204 -0.0071285386 0.04770445 0.027516626 -0.041594937 0.06613361 -0.025072565 -0.018844808
-0.05995176 0.06350879 0.028842628 0.049980476 -0.0069216634 0.011359415 -0.0015233551 -0.029993406
-0.00508524 -0.03182859 -0.0071179415 -0.013535616 0.010282218 0.008810443 0.0010512824 -0.041347977
0.08344971 0.081071235 0.08997335 0.10284051 -0.054490466 0.06411343 -0.08014614 0.05497486
0.08830244 -0.0316292 -0.1320307 -0.024321346 0.05124458 0.0013024057 -0.019547254 -0.12835681
0.058353793 0.09641461 0.029090151 0.00042612763 -0.102607295 -0.0492359 -0.022908561 -0.14914861
0.00044048383 -0.067800716 -0.021451317 -0.052556742 -0.07069711 0.029471418 -0.061425395 -0.111559354
-0.016471704 -0.05747092 0.10067697 0.023102276 -0.016529547 0.0451335 -0.014669341 0.15830563
0.03734591 0.007952417 0.02329942 -0.11259611 0.07154177 0.09187324 0.06987676 -0.038718157
-0.05784468 0.044310495 -0.027297124 0.021422565 -0.09128216 -0.022484766 -0.01616309 -0.059986506
0.0238275 -0.05973418 0.03613151 0.023380399 0.04596016 -0.1026947 -0.10580412 0.06568557
-0.04539119 -0.08715179 -0.16362086 -0.024382183 0.10244229 -0.1417992 -0.0932396 -0.04967842
0.07750026 -0.006121763 -0.02559496 0.054495685 -0.09257708 -0.029354606 -0.03969361 -0.060203437
00000000: a09c babc cefd 4ebd bb5d 04be 5b85 ea3c
00000010: 853d 633d 1b3f 6ebd 267c cd3c 0640 aebd
00000020: 0961 123d 9bf2 1fbb 3ef0 b7bc 8c43 69bd
00000030: 3522 58bd faa6 843d bcec fb3c 3d22 babd
00000040: 2eea d9bd b695 c63c d6b1 263d f9a0 6cbc
00000050: 03a9 17bd 7a78 b1bc e069 8f3d 1532 3c3d
00000060: 8ee5 51bd 911f 653c 2a2c e2bd 7f3e 83bc
00000070: 289a 5dbd ec9e 26bd e2a5 393d a075 06be
00000080: c3f2 1abc dda6 d83c 7f43 79bd 0f2e f63b
00000090: c4a4 9fbd 4d5d a33d 11c3 923c eb9d a0bd
000000a0: a005 ecbb e41b 033d f186 1b3e 9f71 a33c
000000b0: e4ec 2d3c f6e6 7e3c 3af5 1c3e 75cd 443e
000000c0: f0da da3d 9599 fb3d 1693 2cbc a5c9 b7bd
000000d0: 87ac 3bbd 40cc 983c ff0b c83d 27d2 00be
000000e0: 1166 d53c 08c1 8f3e 6159 463e 40b2 503d
000000f0: 6d5e f7bd 880a f53d d3fc b93d 0eeb 32bd
00000100: fd12 4b3d aa46 79bd a02f f93b ac2f edbd
00000110: 608a fdbd a500 01bc 64ff a63d 4cba 5abd
00000120: 6a83 b1bd a881 2cbd ac84 90bd 9d23 293c
00000130: dcf4 5abd 1efa 45bd 0daf c0bc 77bc 3ebd
00000140: 10ba 50bd 2168 86bd dfd9 93bd 1632 013d
00000150: b9c6 f5bc a33a 10bd adb5 40bd 892f a7bd
00000160: 84e6 3dbd 86af 213b 16a6 283d cb5d f1bb
00000170: c945 7cbd e196 153c be5c f73d 571f c13c
00000180: 745d 853d bab1 d33c c0cb 283d 73f4 403d
00000190: 2821 cfbd 8c6b 9fbe 054b 49be 574d 57bd
000001a0: 539b 933d 9505 52be 3d8f 81be f04e ae3b
000001b0: e468 c03d 6962 393d 814a 97be fcd3 31bd
000001c0: b9d8 b33d 9a41 c0bd 7a68 cebd ad13 84be
000001d0: 37f8 f93c f022 733e 219c 75bd 5dd3 0abe
000001e0: 8d3b c8bd 4c84 cebc d294 c63d 8d7c 87bc
000001f0: 2d22 a6be 20d9 49bd 08db a8bd 8785 9dbd
00000200: ccf5 a1bd de6b 023c 8e7a b3bd 947c 6d3d
00000210: f97e 0a3e 256d 433e cbdb 023e 89ef 8d3c
00000220: d365 413e 6b30 0d3e 332f b03d d9d8 20bd
00000230: eaf0 b0bd f0b6 213e b9c7 4d3c bf10 12be
00000240: 4d9d 0fbe e99f 8bbb e195 0c3d cac1 3abe
00000250: eb1e bebd 9e3f 88be 0220 e5bb 874f 173d
00000260: 0cb0 743d 8496 e9bb be65 433d 8c6a e13c
00000270: 745f 2abd 0f71 873d fb64 cdbc 6d60 9abc
00000280: fa8f 75bd e610 823d 6047 ec3c 54b8 4c3d
00000290: 1fcf e2bb d71c 3a3c 51ab c7ba bbb4 f5bc
000002a0: 16a2 a6bb b25e 02bd 9f3d e9bb 7dc4 5dbc
000002b0: c076 283c ad59 103c 2fcb 893a 7f5c 29bd
000002c0: aee7 aa3d ad08 a63d f343 b83d 0c9e d23d
000002d0: 6531 5fbd e74d 833d a923 a4bd 522d 613d
000002e0: e9d7 b43d 9f8d 01bd 0e33 07be 8f3d c7bc
000002f0: d6e5 513d 7cb5 aa3a 9021 a0bc f86f 03be
00000300: 6304 6f3d 0675 c53d 784e ee3c e269 df39
00000310: c623 d2bd 95ab 49bd bcaa bbbc 6aba 18be
00000320: bdf0 e639 1adb 8abd acba afbc bd45 57bd
00000330: a5c9 90bd 0b6e f13c 3299 7bbd 3b79 e4bd
00000340: abef 86bc a166 6bbd ba2f ce3d fc40 bd3c
00000350: f968 87bc e8dd 383d ad57 70bc df1a 223e
00000360: 06f8 183d db4a 023c 6dde be3c ca98 e6bd
00000370: 7e84 923d 0a28 bc3d 8c1b 8f3d ee96 1ebd
00000380: 8bee 6cbd ec7e 353d 389e dfbc 607e af3c
00000390: 24f2 babd f931 b8bc 7568 84bc 69b4 75bd
000003a0: e431 c33c d4ab 74bd a2fe 133d 4088 bf3c
000003b0: b940 3c3d 9951 d2bd d5af d8bd 2886 863d
000003c0: 1dec 39bd a37c b2bd 3a8c 27be 25bd c7bc
000003d0: 43cd d13d cf33 11be 67f4 bebd 997b 4bbd
000003e0: 75b8 9e3d 1299 c8bb 86ac d1bc de36 5f3d
000003f0: 0d99 bdbd 1279 f0bc c495 22bd e197 76bd

conv2.bias f4 [20]
-0.017221104 -0.024375388 -0.083168864 -0.06846831 -0.07270839 0.036708146 0.033999767 -0.048518885
-0.09992276 -0.07720174 -0.14474423 -0.10561752 -0.13973692 -0.04418428 -0.067352526 -0.15836276
-0.09785498 -0.22733922 -0.03561753 0.31574437
00000000: 4613 8dbc e5ae c7bc 7054 aabd 1d39 8cbd
00000010: 23e8 94bd 485b 163d 5743 0b3d bdbb 46bd
00000020: 4ea4 ccbd f21b 9ebd d537 14be 004e d8bd
00000030: 3217 0fbe 93fa 34bd 1ff0 89bd d929 22be
00000040: 3168 c8bd 9dcb 68be b0e3 11bd 3fa9 a13e

fc1.weight f4 [50, 320]
-0.17995697 -0.06323818 0.046740286 0.08352708 0.014081439 0.029661147 0.04215231 0.032470066
0.03641663 0.10532808 -0.004101086 0.068848915 0.043577023 0.05262349 0.042458914 0.07396964
0.0029755135 0.044319723 -0.0742459 0.04286003 -0.080873944 -0.03265455 0.06503569 0.0676856
0.08671368 -0.03138833 0.08156667 0.015449482 0.026828837 -0.12669472 -0.007890002 -0.0645129
-0.09989135 0.020875769 -0.07018286 -0.061559565 -0.087050304 0.01889261 0.0825249 0.105520554
0.07416725 -0.0171738 -0.029671649 0.0047061 -0.00668397 -0.0193113 0.15415697 -0.03315658
0.0047062845 0.121749334 0.09245664 0.049424466 -0.008316899 0.04272866 -0.10228961 -0.05349122
0.0007767233 -0.062764466 -0.100951895 -0.107415736 -0.067306094 -0.07063748 0.013855679 -0.1429333
-0.038464464 0.022605253 -0.02041315 0.0034209131 -0.10575877 0.058953445 0.0005917758 0.0075563556
0.03423687 0.051017527 -0.047628768 0.090783566 -0.03066992 0.122696504 0.013552716 -0.011704702
-0.072194785 0.05029654 0.06669039 0.06677487 -0.031511042 0.13253045 -0.036125533 0.008936979
0.061754826 0.009942329 -0.016877271 -0.0044046575 0.022395294 0.0869566 0.11716917 -0.006020936
-0.08317428 0.041955635 0.1462286 0.015911866 0.10155755 -0.0020068956 -0.07616496 -0.03577719
-0.005283277 -0.08705562 0.11674402 0.046773333 0.14425279 0.016642967 0.077078104 0.04033075
-0.06396446 -0.12620763 -0.051316734 0.03439211 0.024994781 0.041813497 0.018440897 0.10268689
0.021980401 0.011649789 -0.015063398 0.0016411567 0.032338224 -0.08253912 0.08351913 -0.027939726
-0.08232902 -0.063463174 0.05634689 0.023907054 -0.03485904 0.005252085 0.02772565 0.012227269
0.017011244 -0.07202626 -0.08212245 -0.02573323 0.00644352 -0.05254093 -0.11362629 -0.09894084
-0.121912375 -0.08754834 -0.05993354 0.01167444 0.038120188 0.08971263 0.09833655 -0.050019108
0.056450896 0.013915992 0.033648215 0.05494757 0.13159615 0.12276891 0.079103015 -0.10334814
-0.03440445 0.009923117 -0.030270156 0.023497349 0.09184029 -0.012201045 0.031202493 0.017088803
-0.016709583 0.03637929 -0.07483363 0.033674695 0.114202656 0.08194634 0.07033341 -0.025760738
-0.08942731 -0.12695605 -0.11962886 -0.06200658 -0.10734784 0.03465626 0.039104313 -0.05501698
0.076668605 0.059617076 -0.016439622 0.045616753 0.07428498 -0.0045887665 0.06038084 0.11324778
-0.04346403 0.08261425 0.03159041 0.03293706 0.03183746 0.076525405 0.02663904 0.054525867
0.03825824 -0.033324175 -0.051885463 -0.007295242 0.04131908 0.037544344 0.006160149 -0.06767627
-0.08356289 0.026574723 0.130749 0.19911279 0.08136372 0.052848402 -0.039131865 -0.039718945
-0.04118412 -0.024997437 -0.03275027 -0.07343116 -0.099373 -0.0428505 -0.2050248 -0.2073806
0.03798299 0.011016699 -0.08632108 -0.057822824 0.012223733 -0.057248577 -0.07216903 0.06862123
-0.0005849974 0.064136535 0.051690277 -0.035425 0.033508837 0.057143345 -0.026062792 -0.051556174
-0.009712989 0.017641976 -0.042896282 0.012024982 -0.040651403 0.06132074 -0.040093344 0.1134959
-0.025127541 -0.04431878 0.03357974 -0.050742786 0.076371916 0.055304155 -0.054800045 -0.21557306
00000000: a446 38be 0583 81bd be72 3f3d 3f10 ab3d
00000010: d6b5 663c effb f23c e7a7 2c3d 55ff 043d
00000020: 9b29 153d 40b6 d73d 6762 86bb a900 8d3d
00000030: d27d 323d bb8b 573d 66e9 2d3d 657d 973d
00000040: d500 433b 9988 353d 3c0e 98bd 008e 2f3d
00000050: 3da1 a5bd c7c0 05bd 6f31 853d bf9e 8a3d
00000060: f196 b13d 0d91 00bd 6d0c a73d d31f 7d3c
00000070: 26c8 db3c 43bc 01be 1145 01bc 571f 84bd
00000080: d693 ccbd a903 ab3c 08bc 8fbd e225 7cbd
00000090: 6e47 b2bd adc4 9a3c d102 a93d 291b d83d
000000a0: 00e5 973d 12b0 8cbc f511 f3bc a135 9a3b
000000b0: 3405 dbbb bb32 9ebc 53db 1d3e 32cf 07bd
000000c0: 2d37 9a3b b757 f93d e859 bd3d 4f71 4a3d
000000d0: 9a43 08bc 3f04 2f3d 377d d1bd 9c19 5bbd
000000e0: 059d 4b3a a88a 80bd debf cebd c8fc dbbd
000000f0: c7d7 89bd 62aa 90bd ee02 633c 1b5d 12be
00000100: ea8c 1dbd a72e b93c 7a39 a7bc 6631 603b
00000110: 0e98 d8bd 2b79 713d 6721 1b3a 4e9b f73b
00000120: f63b 0c3d c1f7 503d 6216 43bd bcec b93d
00000130: 7c3f fbbc 4e48 fb3d 360c 5e3c 14c5 3fbc
00000140: dcda 93bd bf03 4e3d f994 883d 43c1 883d
00000150: b911 01bd 10b6 073e 5ef8 13bd 686c 123c
00000160: a1f2 7c3d 26e5 223c 3442 8abc f254 90bb
00000170: 5676 b73c 4d16 b23d 64f6 ef3d 464b c5bb
00000180: 4757 aabd acd9 2b3d f3bc 153e 9a59 823c
00000190: 68fd cf3d 1f86 03bb 60fc 9bbd 1a8b 12bd
000001a0: 571f adbb 384a b2bd 7d17 ef3d 6595 3f3d
000001b0: 01b7 133e d556 883c 20db 9d3d db31 253d
000001c0: ccff 82bd 933c 01be 7f31 52bd bede 0c3d
000001d0: dbc1 cc3c a144 2b3d 5d11 973c 814d d23d
000001e0: 3e10 b43c c2de 3e3c 78cc 76bc 151c d73a
000001f0: 1675 043d 450a a9bd 140c ab3d dae1 e4bc
00000200: 1e9c a8bd fbf8 81bd ffcb 663d bad8 c33c
00000210: 5ac8 0ebd af19 ac3b e720 e33c e254 483c
00000220: 2a5b 8b3c 8182 93bd d12f a8bd 7fce d2bc
00000230: 2a24 d33b 2935 57bd e6b4 e8bd 7fa1 cabd
00000240: 32ad f9bd 8b4c b3bd df7c 75bd 2646 3f3c
00000250: ea23 1c3d 41bb b73d ac64 c93d d6e0 4cbd
00000260: 0e39 673d e7ff 633c b6d2 093d b410 613d
00000270: 24c1 063e 446e fb3d c300 a23d 31a8 d3bd
00000280: aeeb 0cbd 9294 223c 1ef9 f7bc 837d c03c
00000290: c316 bc3d e4e6 47bc 5f9c ff3c d1fd 8b3c
000002a0: 89e2 88bc 7302 153d 6042 99bd 7aee 093d
000002b0: 15e3 e93d 7cd3 a73d f60a 903d 2f08 d3bc
000002c0: aa25 b7bd c400 02be faff f4bd 9dfa 7dbd
000002d0: 2fd9 dbbd b9f3 0d3d d82b 203d 7c59 61bd
000002e0: 6e04 9d3d 0931 743d 63ac 86bc a2d8 3a3d
000002f0: b922 983d 5d5d 96bb e651 773d 74ee e73d
00000300: 5707 32bd a931 a93d f264 013d 03e9 063d
00000310: ff67 023d 5ab9 9c3d 1e3a da3c 8456 5f3d
00000320: acb4 1c3d ee7e 08bd da85 54bd ed0c efbb
00000330: 323e 293d 19c8 193d 13db c93b db99 8abd
00000340: 0523 abbd 3cb3 d93c 11e3 053e 39e4 4b3e
00000350: 06a2 a63d 9177 583d bc48 20bd 55b0 22bd
00000360: aeb0 28bd 6dc7 ccbc 2625 06bd 1363 96bd
00000370: 1284 cbbd 0284 2fbd 05f2 51be 945b 54be
00000380: 0d94 1b3d 627f 343c 1bc9 b0bd a0d7 6cbd
00000390: 0d46 483c 7c7d 6abd 5bcd 93bd 4a89 8c3d
000003a0: 835a 19ba 045a 833d 2fb9 533d ce19 11bd
000003b0: 9040 093d 240f 6a3d a381 d5bc 912c 53bd
000003c0: 3b23 1fbc e885 903c 03b4 2fbd 6e04 453c
000003d0: 1682 26bd 752b 7b3d eb38 24bd 8a70 e83d
000003e0: 46d8 cdbc 9c87 35bd e98a 093d abd7 4fbd
000003f0: e168 9c3d 9c86 623d 0376 60bd 2fbf 5cbe

fc1.bias f4 [50]
0.017472222 -0.015556469 0.038098335 -0.008313869 -0.0043566744 -0.11251709 -0.15532784 -0.032351874
-0.05765519 0.06923221 -0.0594049 -0.016129663 -0.11525745 -0.09988968 -0.014412199 -0.0043175337
0.0516893 -0.010981405 0.016369497 -0.04163304 -0.07943104 -0.018649075 -0.052295785 0.036041964
0.05162695 -0.1314528 -0.082471736 -0.016996294 -0.06048111 -0.11538855 -0.051499944 -0.0046895095
-0.0680059 -0.0479829 -0.014741475 -0.032570276 -0.044509307 -0.09292418 -0.061258394 -0.047388714
-0.05958884 -0.081212744 -0.06030639 -0.18437535 -0.04830632 -0.020121198 -0.08640838 -0.08004665
-0.079664014 0.001530694
00000000: e821 8f3c 8fe0 7ebc 000d 1c3d e536 08bc
00000010: 6fc2 8ebb 5c6f e6bd 430e 1fbe 6683 04bd
00000020: d927 6cbd 9ec9 8d3d 8d52 73bd 5b22 84bc
00000030: 190c ecbd f692 ccbd 2521 6cbc 197a 8dbb
00000040: 29b8 533d 5aeb 33bc 5319 863c 6887 2abd
00000050: beac a2bd f2c5 98bc 1b34 56bd bda0 133d
00000060: c876 533d 909b 06be f1e6 a8bd d03b 8bbc
00000070: 0abb 77bd d550 ecbd 9bf1 52bd 75aa 99bb
00000080: ad46 8bbd b889 44bd 3a86 71bc 6968 05bd
00000090: 644f 36bd 084f bebd 15ea 7abd ab1a 42bd
000000a0: 6d13 74bd de52 a6bd d503 77bd e4cc 3cbe
000000b0: d9dc 45bd 36d5 a4bc e0f6 b0bd 7fef a3bd
000000c0: e326 a3bd 91a1 c83a

fc2.weight f4 [10, 50]
0.0021368156 -0.043454867 0.027128264 0.032306004 -0.1296339 -0.24175048 -0.4373808 -0.07540573
-0.21421446 -0.13616036 -0.39427224 -0.18852264 0.13448359 0.20161828 0.32167795 0.2947974
0.2397763 0.13276671 0.11655849 0.13079095 -0.1636528 -0.1686668 0.04662964 -0.24027447
-0.123843215 -0.4748557 -0.14711271 -0.28619894 0.12920587 0.41012132 -0.21858954 -0.020397237
0.53334117 0.23445699 -0.16536357 0.23193124 -0.01689514 -0.06945558 0.020687083 -0.2509764
-0.17426902 -0.54130465 0.06863344 -0.020760126 0.033240434 0.25241864 -0.10405683 0.018100595
0.12808414 -0.024016999 0.25408688 0.28421202 -0.23258054 0.26377642 0.15814604 0.27618057
-0.21232583 -0.0068937424 -0.0010339933 -0.19800648 0.3299555 0.34331328 -0.049436 -0.17671126
-0.05655449 -0.45148998 0.37994257 0.1351386 -0.2791703 -0.16384816 -0.33949354 -0.009146102
0.11617361 0.17185399 0.30886716 -0.31104386 -0.42185795 0.14558731 0.035093155 0.18401802
0.3613674 0.13681456 -0.13613525 -0.23205799 0.2590817 0.08696984 -0.26929665 -0.21281163
0.32711476 0.09543854 -0.31241122 0.08780536 -0.24811815 -0.22674239 0.3163361 -0.20957042
-0.15017425 0.44334522 -0.2821678 -0.007001205 -0.44737884 -0.22171739 -0.11926723 -0.101498306
-0.06625631 0.4102178 0.33705202 -0.17368941 0.37680668 0.23015738 -0.0081581 0.15590163
0.08328916 0.46866116 -0.08640333 0.12558174 0.106870316 -0.05518814 -0.29033208 -0.17965485
-0.07612258 0.15041673 -0.18880159 -0.41242155 -0.11120048 -0.2363854 -0.22152737 0.14763321
-0.2604545 0.08293457 -0.17809498 -0.29954827 0.20116553 -0.24068819 0.11644733 0.27138168
0.12930334 -0.109068014 0.03189224 -0.1226911 0.17624784 0.22940074 -0.12620927 0.001868093
0.011713346 0.19038273 0.018743252 0.08990841 -0.3517821 0.48317665 -0.012879075 0.29522997
0.2288087 -0.1768347 0.0313698 -0.2667704 0.15604779 0.26828292 -0.11668292 -0.054783605
-0.07553369 0.36637348 -0.1617874 -0.10563308 0.24390161 -0.06278845 -0.31976682 0.054558244
-0.24810693 0.3370324 0.17486943 0.3213141 0.18521237 -0.19900195 -0.16125968 -0.16900152
0.28508353 -0.25432053 0.21221952 -0.3210186 -0.48751694 0.13760214 -0.2486844 0.20439884
0.08586431 0.018931007 0.119381756 0.28289947 -0.2940913 0.16378318 0.40800768 0.4994931
-0.23997548 0.23863138 0.032112263 -0.08243761 -0.053038087 -0.13380404 -0.2614667 0.19778764
-0.055310223 0.06986916 -0.015176995 0.24901973 -0.040419556 0.17822921 0.23651052 -0.1590818
-0.135984 -0.08816395 0.23659651 -0.1382029 0.3386603 -0.28822398 -0.042381432 0.36391255
-0.30661651 -0.13118212 -0.11141831 -0.31727117 -0.23643495 -0.22700115 0.29511434 0.30823955
0.17920023 0.2994402 0.053110283 0.11357612 0.055015914 -0.049845483 0.24441408 0.12965609
-0.18113044 -0.24855725 -0.31078267 -0.2591145 0.107559316 0.18693915 0.15910235 -0.12642783
-0.45655343 -0.117520295 -0.109369844 -0.24538681 -0.23886794 0.19223012 -0.27860302 -0.13900681
0.45106113 -0.14022422 0.3519533 -0.18637821 -0.102416664 -0.16321799 0.11399188 0.09140583
00000000: d109 0c3b bbfd 31bd 183c de3c 4d53 043d
00000010: c0be 04be 708d 77be 60f0 dfbe 526e 9abd
00000020: 095b 5bbe 9f6d 0bbe 0dde c9be 140c 41be
00000030: 11b6 093e 0675 4e3e f9b2 a43e afef 963e
00000040: eb87 753e fff3 073e 38b6 ee3d 10ee 053e
00000050: 9994 27be fdb6 2cbe b9fe 3e3d 830a 76be
00000060: 83a1 fdbd 4920 f3be b7a4 16be ab88 92be
00000070: 8b4e 043e 6cfb d13e f0d5 5fbe 1b18 a7bc
00000080: 0c89 083f 7e15 703e 1155 29be 627f 6d3e
00000090: ad67 8abc ba3e 8ebd f577 a93c fb7f 80be
000000a0: 9473 32be f192 0abf b08f 8c3d 2411 aabc
000000b0: 1f27 083d 043d 813e bf1b d5bd b347 943c
000000c0: 7d28 033e 4cbf c4bc ad17 823e 3d84 913e
000000d0: 9829 6ebe b40d 873e 09f1 213e 8a67 8d3e
000000e0: f16b 59be e7e4 e1bb 0f87 87ba 36c2 4abe
000000f0: edef a83e c2c6 af3e 677d 4abd ccf3 34be
00000100: aea5 67bd b229 e7be d587 c23e c661 0a3e
00000110: 69ef 8ebe d0c7 27be 19d2 adbe 88d9 15bc
00000120: 6eec ed3d 7efa 2f3e d623 9e3e 2441 9fbe
00000130: c4fd d7be d714 153e d7bd 0f3d 386f 3c3e
00000140: 2605 b93e 1e19 0c3e 0a67 0bbe 9ca0 6dbe
00000150: 5ba6 843e 3e1d b23d 40e1 89be 4beb 59be
00000160: 967b a73e 4875 c33d 5df4 9fbe 4cd3 b33d
00000170: af12 7ebe 282f 68be cef6 a13e a199 56be
00000180: 47c7 19be 25fe e23e 4c78 90be 5d6a e5bb
00000190: d70e e5be e209 63be 6142 f4bd 58de cfbd
000001a0: 63b1 87bd 1108 d23e 1592 ac3e a3db 31be
000001b0: ceec c03e 60ae 6b3e 8da9 05bc ada4 1f3e
000001c0: 8293 aa3d 5bf4 ef3e 3bf4 b0bd 8098 003e
000001d0: d3de da3d f60c 62bd 68a6 94be 71f7 37be
000001e0: 28e6 9bbd d806 1a3e 3455 41be eb28 d3be
000001f0: 14bd e3bd 040f 72be 12d8 62be 292d 173e
00000200: 4b5a 85be 9ad9 a93d 885e 36be 645e 99be
00000210: 56fe 4d3e f776 76be f07b ee3d 8af2 8a3e
00000220: 1868 043e 0d5f dfbd 70a1 023d 7945 fbbd
00000230: 507a 343e 07e8 6a3e 013d 01be cdda f43a
00000240: 55e9 3f3c b1f3 423e 738b 993c e721 b83d
00000250: c91c b4be ee62 f73e c102 53bc 6228 973e
00000260: d44c 6a3e 2814 35be 9f7d 003d 2196 88be
00000270: feca 1f3e 615c 893e 74f7 eebd c664 60bd
00000280: 68b1 9abd 4e95 bb3e 99ab 25be 2856 d8bd
00000290: 58c1 793e 3b97 80bd 7ab8 a3be 7778 5f3d
000002a0: be0f 7ebe 838f ac3e f910 333e 4883 a43e
000002b0: 50a8 3d3e 2bc7 4bbe 4221 25be bc0e 2dbe
000002c0: 78f6 913e 4d36 82be 1350 593e 8d5c a4be
000002d0: d29b f9be 93e7 0c3e 20a7 7ebe ee4d 513e
000002e0: a1d9 af3d 3315 9b3c 6c7e f43d 33d8 903e
000002f0: 2393 96be c7b6 273e 62e6 d03e 8fbd ff3e
00000300: 22bc 75be c95b 743e 2688 033d 0dd5 a8bd
00000310: 773e 59bd ed03 09be f7de 85be d888 4a3e
00000320: f98c 62bd 9017 8f3d eea8 78bc 07ff 7e3e
00000330: fa8e 25bd b881 363e d02f 723e 57e6 22be
00000340: 643f 0bbe 4d8f b4bd 5b46 723e 1085 0dbe
00000350: e264 ad3e 1892 93be 2798 2dbd bf52 ba3e
00000360: d7fc 9cbe 9b54 06be 482f e4bd 5e71 a2be
00000370: 011c 72be fd72 68be 3a19 973e 93d1 9d3e
00000380: 4480 373e 3a50 993e 2b8a 593d 999a e83d
00000390: 5e58 613d c72a 4cbd af47 7a3e 91c4 043e
000003a0: 427a 39be cb85 7ebe e81e 9fbe a8aa 84be
000003b0: 0f48 dc3d fa6c 3f3e baeb 223e 4c76 01be
000003c0: 5fc1 e9be 7bae f0bd 4cfd dfbd ae46 7bbe
000003d0: cc99 74be f9d7 443e 0ea5 8ebe cd57 0ebe
000003e0: 7cf1 e63e f096 0fbe 3933 b43e eed9 3ebe
000003f0: d4bf d1bd 9e22 27be 9374 e93d fb32 bb3d

fc2.bias f4 [10]
-0.09488043 -0.090486124 0.020332478 -0.025078801 0.0011488517 -0.03528879 -0.05175845 0.022731662
-0.007925481 -0.037191533
00000000: ac50 c2bd ca50 b9bd 4c90 a63c 0f72 cdbc
00000010: 1195 963a fa8a 10bd ab00 54bd c037 ba3c
00000020: e0d9 01bc 2656 18bd
