MNIST/snapshots/oe_tune/calib_oe_tune_epoch_4.pt (torch_old, 88724 bytes, 8 tensors)

conv1.weight f4 [10, 1, 5, 5]
000000 c1 f4 a2 bd ee ee 67 be 9f b6 58 be ee e8 10 be
       -0.07956839 -0.22649738 -0.21163414 -0.14151356
000010 03 2c b6 be c4 14 94 3d 3c d6 2e be 4a 84 48 be
       -0.35580453 0.07230523 -0.17073911 -0.19581714
000020 3c 01 ad be 1f 94 c6 be 92 3a d2 3d c6 28 11 3e
       -0.33790004 -0.38784882 0.10265078 0.1417571
000030 3a 35 36 3e be 19 b2 bd cf 5b eb bd 69 35 30 3d
       0.17793742 -0.08696316 -0.114921205 0.043019686
000040 8f b8 42 3e c9 57 94 3e f5 0e 00 3f a3 8a 63 3e
       0.19015716 0.28973225 0.5002282 0.22220854
000050 2d e8 fa 3c 43 09 1f be 6e c6 ad bd e5 c9 78 3c
       0.030628288 -0.15530877 -0.08485113 0.015184854
000060 69 df c6 3d 2f b9 26 3e 5b b0 dd 3e b3 6c a9 bd
       0.09710581 0.1628158 0.4329861 -0.08272686
000070 2f 67 0a bf 3e ce e8 bd b9 5d bc 3d df b2 0d 3f
       -0.54063696 -0.113674626 0.09197564 0.5535106
000080 66 d5 11 bd 87 60 eb be 1e 11 d4 be f4 26 d7 bd
       -0.035603903 -0.45972082 -0.4141931 -0.105054766
000090 6b 99 3d 3f 59 e0 07 be 68 c0 81 be cb ca a9 be
       0.7406222 -0.13269176 -0.25342107 -0.3316253
0000a0 36 44 1f 3e 95 bd 83 3e 62 9e 9e 3e 82 2f d4 bd
       0.15553364 0.25730577 0.30980211 -0.10360624
0000b0 6f 49 5a be 2e 09 f9 3d b5 ab df 3d 6a f3 67 3e
       -0.21317075 0.12159954 0.109214224 0.22651449
0000c0 1b f2 aa 3d d4 57 9d 3d d9 b2 10 be 2a a6 83 be
       0.08346959 0.076827675 -0.14130725 -0.2571271
0000d0 14 04 e5 ba 0b b1 1b 3e cb a5 92 3e 7b d1 28 be
       -0.0017472529 0.15204255 0.28642115 -0.1648616
0000e0 9f fa 78 be f2 ce 90 3d ce d3 fe 3e e6 ae 91 3d
       -0.24314354 0.07070722 0.4977097 0.07113437
0000f0 76 2a 90 be 44 e6 04 3e 6d fe 32 3f 70 51 ed 3e
       -0.28157395 0.12978464 0.6991947 0.46351194
000100 aa ae a7 be f7 f2 0d 3d 61 32 b0 3e 21 0d ea 3e
       -0.32750446 0.034655537 0.34413436 0.45713142
000110 a5 73 87 be 65 cd df be a0 70 5e 3e 31 eb 41 3d
       -0.26455417 -0.4371139 0.2172265 0.047343437
000120 4b d3 0d be 23 e1 cf be 91 ca 63 be f3 5f 32 3e
       -0.13850133 -0.40601453 -0.22245242 0.17419414
000130 07 42 c4 3e 56 87 b0 3e 50 d5 7e 3d cd 3d 36 3e
       0.38331625 0.34478253 0.06221515 0.17797013
000140 24 39 7b be 34 b6 80 bd a8 da 28 3e d4 9b 25 3e
       -0.24533516 -0.062847525 0.1648966 0.16172725
000150 93 c3 6e 3e 4d 3b 42 be 7e be 8b be 7b bf bd 3d
       0.23316793 -0.18967934 -0.27293772 0.092650376
000160 53 cd 84 3d d4 56 68 3e bf fc ce 3d 42 74 a9 be
       0.06484475 0.22689372 0.10106801 -0.3309651
000170 c4 35 96 be c0 20 1d be e2 62 4b be 2b dd d8 3b
       -0.29337895 -0.15344524 -0.1986194 0.006618162
000180 ff 88 96 bb d7 59 88 be d5 64 92 be b9 7f c3 bd
       -0.004593968 -0.26631042 -0.28592554 -0.095458455
000190 14 9e 60 3e 84 c8 19 be 25 12 41 be 2a f4 a1 be
       0.21935302 -0.15017897 -0.18854578 -0.31631595
0001a0 b3 49 fa be bb 9c 1d bd e4 34 a3 3e 55 0e e3 be
       -0.48884353 -0.038479548 0.3187629 -0.44346872
0001b0 cf 0d 92 be e0 d0 81 bd 9d 1b 58 bd 45 e1 49 3f
       -0.2852616 -0.06338668 -0.05276071 0.7885936
0001c0 4d cc 05 3f e4 ad 6f 3c d7 ca 8a 3e f1 45 04 bd
       0.52264863 0.014628861 0.2710788 -0.032293264
0001d0 ed 3e d4 3e 40 4f d0 3e b6 6b 91 3e ae d6 54 3c
       0.4145426 0.40685463 0.2840249 0.012990637
0001e0 de 69 0b bf d5 63 f5 be 5a 7a cd bc c7 48 15 be
       -0.54458416 -0.47927728 -0.025082756 -0.14578544
0001f0 19 f1 06 be e6 8a b3 be 08 fb 14 bf e8 06 f2 be
       -0.13177909 -0.3506691 -0.58195543 -0.47270894
000200 a4 73 93 3d 0f 91 c1 3e 77 44 c8 be 7f 92 ef bb
       0.07199791 0.37805983 -0.39114735 -0.007311165
000210 dd 2e 9f 3e 4d fc 0a 3f c1 e3 37 3d ac b2 57 3e
       0.3109044 0.5429123 0.044894937 0.21064252
000220 c4 a0 27 3e 11 c6 95 3d da de b3 3d 00 d0 25 be
       0.16369921 0.07313169 0.0878274 -0.16192627
000230 c1 c2 bd 3d 39 91 5d bd 8d 19 96 be 27 f1 4a 3e
       0.09265662 -0.054093573 -0.2931637 0.19818555
000240 39 b0 83 3e 15 d5 97 3d a9 7c 29 3d f9 56 42 3d
       0.25720385 0.07413689 0.04137865 0.047446225
000250 33 10 69 3e 7e 46 a4 3e 23 5e c1 bd ad 5c 42 3e
       0.22760086 0.3208503 -0.09441783 0.18980666
000260 d8 de 9e bc d7 e6 a9 bc 44 b3 91 be cc eb 48 be
       -0.01939337 -0.020739956 -0.2845708 -0.196212
000270 70 01 16 be cd 87 b1 bd 63 dd 0a 3e 82 2f e0 bd
       -0.14648986 -0.0866848 0.13561015 -0.109465614
000280 05 14 32 be 57 3d a3 3d 24 f4 b3 3d e9 76 17 3e
       -0.1739045 0.07970684 0.087868005 0.14791454
000290 8d e3 ff bd a5 52 76 3d 49 37 55 bd 10 aa 3b bd
       -0.12494574 0.06013741 -0.052054677 -0.04581648
0002a0 4e b9 0e be d7 72 d2 bd c4 91 d9 bc 8e 2a 5c 3d
       -0.13937876 -0.1027581 -0.026558764 0.05375152
0002b0 7c fb 03 3d f3 0a 09 3e c8 7e 8e 3e b8 19 28 3e
       0.032222256 0.13383083 0.278311 0.16416061
0002c0 e0 f6 54 3e 5a bc 2c 3e 82 c1 7b 3c 03 08 b5 3e
       0.207973 0.16868725 0.01536596 0.35357675
0002d0 c5 58 d4 bd 5c b0 0d be d8 94 87 be 74 b0 7a be
       -0.10368494 -0.13836807 -0.26480746 -0.24481374
0002e0 3b 7b 11 be 5b f0 3b 3e 38 1f 37 be f1 19 7b be
       -0.14207165 0.18353407 -0.17883003 -0.24521615
0002f0 c9 5b 52 be a8 07 39 be 92 a8 94 3e 17 6c 59 3e
       -0.20542826 -0.18069327 0.2903486 0.21232639
000300 58 fa cc 3d 1d 76 58 3d 9b 49 3a 3e 98 5b 81 bc
       0.10008687 0.052847017 0.18192141 -0.015790746
000310 5f da b6 3e b5 7a 03 3f b8 37 e6 3e 0d 9d 0f 3e
       0.3571348 0.5135911 0.44964385 0.14024754
000320 d6 42 14 be 6d 82 70 be ef 9d 1e 3e cb 68 4d bb
       -0.14478621 -0.23487253 0.15489934 -0.003134298
000330 0f e8 f6 3d 92 11 43 be 96 5d 44 be ab 50 f9 bd
       0.120559804 -0.19049671 -0.19176325 -0.12173589
000340 8a f4 7b 3e 27 51 ce 3e 0d de 84 be de 0f 83 be
       0.24605003 0.4029629 -0.2595066 -0.25598043
000350 80 0c e3 be 36 ed 4e 3e 85 6a 1a 3f b3 14 4c be
       -0.44345474 0.20207676 0.60318786 -0.19929771
000360 78 a3 74 be 7a 47 d9 be 09 22 f0 bd a0 fe 17 3f
       -0.23890483 -0.42437345 -0.11725242 0.593729
000370 88 96 09 bf a6 3e 75 be 56 9d eb be f3 a2 9f be
       -0.5374532 -0.2394968 -0.46018475 -0.31179008
000380 21 48 a5 3e fd 25 0d be 75 a5 0f 3d 14 69 9a 3e
       0.32281592 -0.13784023 0.0350699 0.30158293
000390 e8 f9 f2 3e df d5 0c 3f f5 dc a4 bd d7 3e c9 bd
       0.47456288 0.5501384 -0.08049957 -0.09826439
0003a0 e0 79 a9 3e 08 00 1f 3e 02 db a1 3d 0b 28 22 bd
       0.33100796 0.15527356 0.079031006 -0.03958897
0003b0 1b 03 e5 bd 4f 48 13 3e c7 8f db 3d aa 81 90 be
       -0.11182233 0.14383052 0.10720783 -0.28223926
0003c0 85 d8 b1 be 76 62 25 be 39 bf 63 be 5c ed b2 be
       -0.34735504 -0.16150841 -0.22240914 -0.34946716
0003d0 ee 08 cc be a9 f0 5f be 6f f3 0b bf 8c 67 23 bf
       -0.39850563 -0.21869148 -0.54668325 -0.63829875
0003e0 55 49 00 bf 70 e6 85 3c
       -0.50111896 0.016345233

conv1.bias f4 [10]
000000 d3 50 32 3d 9b a9 f5 be bf 19 cf be 73 19 18 3e
       0.04353411 -0.4798096 -0.4044933 0.14853458
000010 90 4f ed be ed f6 fa be bf e5 24 3e ca 22 f7 3d
       -0.46349764 -0.49016514 0.16103266 0.12067182
000020 4c e7 81 be 39 1b 25 bd
       -0.25371778 -0.040309165

conv2.weight f4 [20, 10, 5, 5]
000000 dd 91 1c 3d 17 79 13 bc 93 b0 be bd cc ff d3 3d
       0.038225044 -0.009001038 -0.093110226 0.10351524
000010 4a fa 20 3e 9a 2c ac bc cf 7c 62 3b 52 c7 c1 bd
       0.15720478 -0.021017361 0.0034559255 -0.094618455
000020 71 d4 e2 3c 50 d7 c5 bc 27 9a 53 bd 29 69 a8 bd
       0.02768919 -0.02415052 -0.051660683 -0.08223183
000030 47 f0 b2 bd 17 a9 1c 3d dd b6 be bc 33 e6 8c bd
       -0.087372355 0.038247194 -0.023280555 -0.068798445
000040 01 77 d2 bd 38 9f 74 bc e2 48 ab bb cd 52 91 bc
       -0.102766044 -0.014930539 -0.005227194 -0.017739678
000050 9a 76 0b bd 04 e8 d3 ba 16 a6 86 3d e4 0d dd 3c
       -0.034048654 -0.0016167169 0.06574647 0.026984163
000060 9c be 64 bd b7 66 78 bd d2 f0 7f be 2b fd eb bc
       -0.05584584 -0.06064483 -0.2499421 -0.028807243
000070 6f 2d 9e 3d e4 54 69 3e 59 fd 63 bd 21 56 67 be
       0.077235095 0.2278629 -0.055661533 -0.2259145
000080 8c 85 be bd b6 81 a3 bb fb 39 e0 3d 01 6e ac bd
       -0.09302816 -0.004989828 0.10948559 -0.08419419
000090 ec b7 13 be 48 d7 a8 3d 40 17 89 3d 52 83 98 3c
       -0.1442563 0.08244187 0.06693888 0.018617306
0000a0 f5 92 b4 bd ca d7 09 3d 2b 03 67 3e 0a 5d 82 3c
       -0.08817092 0.033653058 0.22559802 0.015913505
0000b0 e4 d4 a2 3d 73 05 e2 bc 59 ba 30 3e 66 a5 ff 3d
       0.07950762 -0.027590489 0.17258586 0.12482719
0000c0 9b 10 c0 3a 14 aa e2 3d 2d 75 24 3d 57 d6 86 bd
       0.0014653386 0.11067596 0.04015081 -0.06583851
0000d0 7f fb ff 3b 2b 4c fa 3c 41 d3 19 3e ef 32 1a bd
       0.007811963 0.030553898 0.15021993 -0.03764623
0000e0 a0 de 09 bc 71 af 3b 3e 14 08 7c 3e 46 0a 6e 3d
       -0.008414894 0.18328644 0.24612457 0.058115266
0000f0 b5 92 3f 3c 32 0b 45 3d e0 01 23 3c 3b 7f ce bc
       0.0116926925 0.04810638 0.0099491775 -0.025207153
000100 26 ef b6 3d 80 4a bd bd ad 8e 4b bb 70 4b 08 be
       0.08932333 -0.09242725 -0.0031060383 -0.13310027
000110 2d 58 46 be 45 14 90 bd ba 9d 25 3d b6 14 11 bd
       -0.19369574 -0.07035116 0.040433623 -0.035420142
000120 ca 3a 5a be 43 03 02 be 05 de 68 bd cd e1 37 3d
       -0.21311489 -0.12696557 -0.05685236 0.044893075
000130 38 6e a5 bd e8 1c c1 bd 2c 83 47 bd 51 b4 cc bd
       -0.08077663 -0.094293416 -0.04870908 -0.0999533
000140 88 f7 c7 bc 88 b1 c8 bd 03 c0 2c be b6 55 ac bd
       -0.024410024 -0.097994864 -0.16870122 -0.084147856
000150 ab 1b 11 bd db 93 48 bd 87 2c a2 bd 5f 4f cf bd
       -0.035426777 -0.04896913 -0.07918649 -0.10122561
000160 36 87 b6 bd 41 61 67 bc 52 1a 21 3d a8 b4 5a bc
       -0.08912508 -0.014122308 0.03933174 -0.013348736
000170 4a e1 4b bd 01 36 76 bb 04 15 07 3e b6 28 2d 3d
       -0.0497754 -0.003756881 0.1319161 0.042275153
000180 62 b3 a2 3d 12 eb bf 3c 91 d0 de 3c f5 d0 7f 3c
       0.07944371 0.02342752 0.027199062 0.015613784
000190 bc 6b 18 3e f6 95 9d bd e0 6c ba 3c dd 5d 95 3d
       0.14884847 -0.076946184 0.022756994 0.072932936
0001a0 d0 22 9a 3e f7 34 26 3d 84 65 de bd 57 60 9b 3c
       0.30104685 0.040577855 -0.10859206 0.018966837
0001b0 df 49 a6 3b 06 29 be 3d 1a 3b 8e bd fc a3 12 bd
       0.005074724 0.09285168 -0.069448665 -0.03580092
0001c0 09 63 41 3c 2d 89 39 3c f8 6d f3 3d c8 48 c2 bd
       0.011803397 0.011324209 0.11886209 -0.09486538
0001d0 d9 c9 98 3b be 83 8d 3e ac 94 07 3e 96 1c c2 3d
       0.004662734 0.27639574 0.13240308 0.094781086
0001e0 0e 7b f4 bd 34 f0 ae bd 6d fe af 3b 84 53 37 3d
       -0.11937533 -0.08541909 0.005370906 0.04475738
0001f0 51 12 c2 bd aa 9f 88 3d 89 79 23 3d 9b 90 4a 3c
       -0.0947615 0.066710785 0.039910827 0.012363578
000200 10 72 0c bd 73 aa 7e 3d f6 d5 4e bd 0f f0 00 3e
       -0.034288466 0.06217427 -0.050497018 0.12591575
000210 12 92 27 3e f7 13 2e 3e c7 14 b1 3d ba 0d ee 3d
       0.16364315 0.16999803 0.08646541 0.11623712
000220 e1 ba 99 3e a7 10 3c 3e 6e 86 c0 3d 72 ce e7 bd
       0.3002539 0.18365727 0.094006404 -0.11318673
000230 a7 3a 2d bd ed e9 16 3e ba 29 12 3d e1 41 ea bd
       -0.042292263 0.14737673 0.035684325 -0.11438347
000240 75 f7 2e be 89 9e 9b bd da 38 3c 39 7f 5c 02 be
       -0.17086585 -0.075985976 0.00017950256 -0.12730597
000250 a2 1e 3b bd d8 bb 51 be 32 1d f1 bc 73 82 96 bc
       -0.04568351 -0.20481813 -0.029432867 -0.01837275
000260 9c ae c0 3b 90 a7 00 bd 28 78 53 3d b4 60 3c bc
       0.00588019 -0.0314098 0.05162826 -0.011497665
000270 18 64 ad bd b9 af 23 3d 7d 14 81 bd 0d 50 d0 bc
       -0.08466357 0.039962504 -0.06302736 -0.025428796
000280 9c ae 84 bd fc 06 27 3d 37 20 68 3c eb 02 d4 3c
       -0.064786166 0.040778145 0.014167837 0.025880298
000290 c5 48 1d bd c8 b2 5a bb 79 68 87 bc 71 2e 48 bd
       -0.038399477 -0.0033370722 -0.016529309 -0.048872415
0002a0 39 d3 44 3c 0d 45 3c bd 24 bf 57 bc 96 e9 a5 bc
       0.01201325 -0.04596429 -0.01316813 -0.020252984
0002b0 ad 79 b2 3c 73 ae cf 3c 97 87 1d bd d0 10 5d 3c
       0.021786535 0.025351739 -0.038459387 0.013492778
0002c0 76 ab 2e 3d 0f 51 9a bd b5 17 30 bd b3 5a fd 3b
       0.042643987 -0.07534992 -0.04299136 0.0077317595
0002d0 11 a9 46 3d 6b 24 31 3c 94 01 5e be 97 6c 0a bc
       0.048501078 0.010811905 -0.2168029 -0.008448741
0002e0 43 79 1a 3d 65 89 40 bd 6c ef 4b be 59 a6 f1 bd
       0.0377133 -0.04700603 -0.19915551 -0.117993064
0002f0 d9 25 03 bc f8 37 b9 bb a0 80 5d bd 30 50 c3 bd
       -0.008004629 -0.005652424 -0.054077744 -0.09536779
000300 d5 a4 19 3d 37 5c 30 3d bf 52 38 3c 00 31 17 3e
       0.03751071 0.043056693 0.011250197 0.14764786
000310 ab 10 06 bd 62 f0 3f bb 22 71 95 bb 94 2a 67 be
       -0.03273074 -0.0029287566 -0.0045606056 -0.22574836
000320 a1 5c f2 39 45 bc ae bb e2 ca 7b bd a7 26 80 bc
       0.0004622685 -0.005332502 -0.06147278 -0.01564343
000330 fc 85 56 bd c9 14 2f 3d f5 e9 a3 3c 2d 37 0c be
       -0.05237387 0.04274443 0.02000902 -0.13692923
000340 ea 65 54 bd bd e7 af bd dd 8b 99 3d 11 9f f7 3d
       -0.051855005 -0.085891224 0.0749738 0.120908864
000350 d8 84 f4 3d 7e b7 33 3d 26 77 f3 3b ef 84 06 3e
       0.119394004 0.043876164 0.007429975 0.13136648
000360 29 99 c0 3d 3e a1 14 3e f0 c5 fd 3d d0 f9 5d bd
       0.09404213 0.14514634 0.12391269 -0.054193318
000370 4a 8b 61 3d 5f db 6b 3d c2 a1 0b 3e 62 47 a5 3d
       0.055064477 0.057582255 0.13635924 0.08070256
000380 82 23 b4 bb a1 b3 28 3e c3 c7 3b bd f5 44 76 bc
       -0.005497397 0.16474773 -0.045844804 -0.015031089
000390 cf 79 91 bd 8f 03 58 bc 35 d0 47 3d fb a4 87 bd
       -0.07103311 -0.013184442 0.048782546 -0.066232644
0003a0 31 89 ac bd 36 87 27 be 94 66 43 3c 1e a1 d3 3d
       -0.08424605 -0.16360173 0.011926312 0.10333465
0003b0 b7 f5 13 3d 12 a3 27 be 1d 19 c0 bd 81 0e 87 3d
       0.036123004 -0.163708 -0.0937979 0.06594563
0003c0 93 f3 18 3c 07 b4 ad bd 5d e3 7b bd d2 5c d3 3d
       0.009335416 -0.08481603 -0.061496127 0.103204384
0003d0 20 f0 14 3e de 48 0b be 4f e1 38 bd 1e d3 07 3c
       0.14544725 -0.13602015 -0.045136746 0.00829008
0003e0 49 ac 97 3d 3e e0 58 3c ee 3d 2b bc 9a 6b 27 3d
       0.07405908 0.013237057 -0.010451777 0.0408741
0003f0 34 f6 81 bd a0 2e 39 3d 80 51 54 bb 03 7a 09 bb
       -0.06345788 0.04521048 -0.003239721 -0.0020977266

conv2.bias f4 [20]
000000 8d 29 3b be 7b 23 33 be d9 cc f1 bd dd 61 6d be
       -0.18277569 -0.17494003 -0.1180665 -0.23181863
000010 3c 3f 64 be b7 22 e0 bd 01 22 63 be 06 a9 4e be
       -0.22289747 -0.10944121 -0.2218094 -0.20181665
000020 23 e4 5f be 6c d3 dc bd 20 ec f4 3d be 42 3e be
       -0.21864371 -0.10782513 0.119591 -0.18580148
000030 71 92 48 be 64 6f 68 be 3b 89 02 be 91 bf 8a be
       -0.19587113 -0.22698742 -0.12747662 -0.2709928
000040 81 a6 41 be 0f 57 56 be a8 f4 bd bd 86 61 c6 3d
       -0.18911172 -0.20931648 -0.0927518 0.0968657

fc1.weight f4 [50, 320]
000000 62 87 37 be 13 8c fb bd c1 a1 8a 3c 4c 88 a3 bc
       -0.17922738 -0.122825764 0.016922833 -0.019962452
000010 66 b3 c6 3a 65 ec 04 bc 5e f6 90 3d 5e f4 84 3d
       0.0015159666 -0.0081130015 0.07078241 0.06491922
000020 37 5f 63 3d c4 cb ef 3d 9e 06 47 3d 8b b7 97 3d
       0.055510726 0.11708787 0.048590295 0.07408055
000030 ad 8a ad 3b d7 e7 bb bc ce 3b 30 3d e3 36 ea 3c
       0.0052960725 -0.022937698 0.043025784 0.028590625
000040 e5 01 93 bc d4 7c 69 bc 98 c4 76 bd 01 83 99 3d
       -0.01794524 -0.014250953 -0.06024608 0.0749569
000050 20 75 32 bc 1f 68 71 3c ef 1c 83 3d b0 07 22 3d
       -0.010892183 0.014734297 0.06402003 0.039558113
000060 e4 4a 0f 3e cd 8a dc bc b5 a5 85 3d 80 8a 0c bb
       0.13993412 -0.026921654 0.06525747 -0.0021444857
000070 de 40 ad 3b 86 5e 76 bd fd ef 75 3d 28 d0 d3 3b
       0.005287274 -0.06014874 0.060043324 0.006464023
000080 f2 67 94 bd d7 9b ec bc 3d 97 ce bd e1 b8 7f bd
       -0.072463885 -0.028882904 -0.1008744 -0.062432174
000090 75 69 75 bd 41 f5 50 bd f7 b4 9b 3d a9 f0 f9 3d
       -0.059915025 -0.051015142 0.07602876 0.122041054
0000a0 4d e7 88 3d ef fb e2 3d 23 5b 66 3d e8 ed 27 bc
       0.06684742 0.11083209 0.05623926 -0.010249592
0000b0 d9 f6 e6 bb a7 ad 1f 3c b3 4f 09 3e d3 69 08 bc
       -0.0070484695 0.009745992 0.13409309 -0.008326012
0000c0 17 14 de bc 36 28 3b 3c ae 3a 53 bd 86 8c 93 bc
       -0.027109189 0.011423161 -0.051569633 -0.018011343
0000d0 a0 8e aa 3d f4 59 ea 3d b8 3c dc 3c 3d 9f 8f 3d
       0.08327985 0.114429384 0.026884422 0.07012794
0000e0 ec db 07 3d e2 48 f4 bd aa ca 07 be 79 59 42 bd
       0.03316872 -0.11927964 -0.13260904 -0.04744861
0000f0 5c fe 89 bc bb 22 c0 bd 2b 48 b4 bd df 33 f5 bd
       -0.01684492 -0.09381624 -0.088028274 -0.11972784
000100 4f fe 37 bd ad 09 85 bd f4 cc e7 bc 71 ae c4 bc
       -0.044920262 -0.06495986 -0.028295971 -0.024008961
000110 e7 e0 23 bd 50 72 06 3d 6c da d8 bc 59 22 a5 bb
       -0.040009405 0.03282386 -0.02647134 -0.005039495
000120 7b 07 32 3c cc d4 8d 3a 73 33 6b bd b3 e8 7d 3d
       0.010866041 0.0010820865 -0.057422113 0.061989497
000130 8b 6b 2b 3d 86 19 55 3e ec 63 e5 bc 8e 9b 37 bc
       0.041850608 0.20810518 -0.028001748 -0.011206521
000140 28 1d d1 bd aa 7f 68 bc 71 5c 4e 3d ee 20 9b bd
       -0.10210639 -0.014190594 0.050381128 -0.0757464
000150 87 5d 26 bd 4f 6f 75 3d d5 e7 52 bd 98 bb cf bc
       -0.04061654 0.059920605 -0.051490624 -0.025358006
000160 65 bd ef 3c d3 61 a7 3d 98 00 4f bc 53 ef 06 3d
       0.029265115 0.08172955 -0.012634419 0.03294308
000170 ae e3 46 3d 99 05 67 3e e0 3d 09 3e 81 2d 55 3d
       0.048556976 0.22560729 0.1340251 0.05204535
000180 54 49 21 bc 80 b3 5d 3d a1 59 ba 3d 3a dd 43 bc
       -0.009844143 0.054126263 0.090991266 -0.0119546
000190 0c c2 0f 3e 69 78 e0 3d 79 8f a6 bc 1c 49 bb 3c
       0.14038867 0.109604664 -0.020332085 0.02286201
0001a0 00 5d 22 bd ef 18 76 bd e2 6b 04 bc 71 20 7e bd
       -0.039639473 -0.060082372 -0.008082362 -0.062042657
0001b0 da 19 fb 3d a4 70 5f bd 05 35 24 be 00 93 10 be
       0.1226079 -0.05455078 -0.1603585 -0.14118576
0001c0 ac 68 87 bc 0d 43 d7 bd 29 a7 63 b9 b4 05 81 3d
       -0.016529404 -0.10510836 -0.00021710679 0.06299916
0001d0 4b df d8 ba 12 77 93 3b 95 53 30 3d 7c 2b e1 3d
       -0.0016546039 0.0045002783 0.04304846 0.10994622
0001e0 dc 15 8e 3d fd 3f 8d 3d 0e d9 35 bd f7 99 63 bb
       0.06937763 0.068969704 -0.044396453 -0.0034729221
0001f0 eb c8 50 bd 13 6e ad bc 22 df 85 3d 80 08 e1 bc
       -0.05097286 -0.021170652 0.065367 -0.027469873
000200 6d 3c 2c bd 0a ff 16 3d 19 37 96 3d 0a 40 d2 bb
       -0.042049814 0.036864318 0.07334728 -0.0064163255
000210 46 da 16 3d 6a 56 8a 3d 09 17 c8 3d 7c 7c af 3c
       0.036829256 0.067547634 0.097700186 0.021421663
000220 6b 1b 8f 3d e9 ff 90 bd c6 27 27 bc d5 eb 75 3d
       0.069876514 -0.07080061 -0.010202354 0.06003936
000230 4c 09 df bd 7a f0 d3 bd e0 7f df bd 8e bc c4 bd
       -0.10890445 -0.10348602 -0.10913062 -0.096062765
000240 7b 1d a6 bd 1b 50 16 be 7b 67 32 bb e0 6d 76 3d
       -0.08111092 -0.14678995 -0.0027222324 0.06016338
000250 08 e2 12 bc 41 8e 65 bc ab f1 7f 3d ef ca 5a bd
       -0.008965023 -0.014010967 0.062486332 -0.05341619
000260 6e 07 c3 bb 7f eb d5 3a 63 d3 86 bd 1c a3 4d 3d
       -0.0059518134 0.0016320794 -0.065832876 0.05020438
000270 c1 e3 0e 3e 71 48 0f 3e 53 30 9f 3d 63 03 86 3d
       0.13954069 0.13992478 0.07772889 0.06543615
000280 9f 56 29 bd 50 5c 99 bd ec 33 84 bd e6 f5 ee bc
       -0.041342374 -0.0748831 -0.06455216 -0.029169988
000290 59 bc 01 3d 5d 76 8d bd 31 a5 ca 3d cd 5c fe bb
       0.031673763 -0.06907342 0.09894789 -0.0077625276
0002a0 04 21 93 bd 3f 80 51 3d 73 6f 91 3c fb 28 e0 3d
       -0.071840316 0.051147696 0.017753338 0.109453164
0002b0 3a d8 c1 3d 63 62 b1 3d 31 62 a9 3d 7c a4 07 be
       0.0946507 0.08661344 0.08270682 -0.1324634
0002c0 d9 d3 29 bd 72 bb 2a be f8 bb cf bd e6 bf 7a bd
       -0.0414618 -0.16673067 -0.10143274 -0.061218165
0002d0 03 57 94 bd a0 66 86 bd d9 b0 97 3d 7f 54 d9 bd
       -0.07243159 -0.06562543 0.07406778 -0.106118195
0002e0 9e 2f 93 3c 4b cd b8 3c ff 15 ef bb bc 9d 93 bc
       0.017967042 0.022558829 -0.0072963233 -0.01801955
0002f0 7d 63 5b 3d 77 21 f8 3d 13 a1 ac 3d 1e 83 df 3d
       0.053561676 0.12115758 0.0842916 0.109136805
000300 d3 93 60 bd 57 d7 10 3d 47 74 d3 3c c2 7d 42 3d
       -0.054828476 0.035361614 0.025812281 0.047483213
000310 71 90 cf 3c bd e8 0a 3d ff c3 87 3d a4 96 aa 3d
       0.02533743 0.033913363 0.0662918 0.08329514
000320 55 75 35 3d b0 00 16 bd b9 64 cc bb 2c 62 95 3c
       0.04430135 -0.03662175 -0.006237593 0.018235289
000330 2a 4d 90 3c 04 ba d1 bc d5 6b 5e bd ce 7c 8a bd
       0.01761492 -0.025601394 -0.054302055 -0.06762086
000340 16 63 37 bd 61 25 e7 3c 3d b7 0c 3e b7 b6 ea 3d
       -0.04477223 0.028216066 0.13741775 0.11460631
000350 b0 5e 0d 3e c4 9d a9 3d 1a df 46 3d 30 b0 01 3d
       0.13805652 0.082820445 0.04855261 0.031662166
000360 0b 46 b2 bd 9e bf 67 bd d1 6a dc bd 11 cd 06 be
       -0.08704766 -0.056579225 -0.10762561 -0.13164164
000370 6f c8 f5 bd eb aa 98 bd 5b 02 2f be 06 8d 4a be
       -0.1200112 -0.07454475 -0.17090742 -0.19780359
000380 3a 4c 96 3d 89 1d ff 3c ef 37 d3 bd ff 96 99 bd
       0.07338758 0.031142013 -0.10313403 -0.07499503
000390 05 ae c4 3c ea 4e a0 bd 20 10 a5 bd 33 3c 66 3d
       0.02400876 -0.07827552 -0.08059716 0.056209754
0003a0 26 f6 02 bd 83 84 f2 b8 f7 f5 69 3c 17 45 25 3c
       -0.031973027 -0.000115641415 0.014279834 0.010087273
0003b0 bf 08 50 bc 7a 86 f5 bc 51 a6 99 bd a1 85 a2 bd
       -0.012697398 -0.02997135 -0.075024255 -0.07935644
0003c0 4c f3 09 3d 03 0b 92 3d 3b 30 43 bd 90 75 e5 bb
       0.03367929 0.071310066 -0.047653418 -0.00700254
0003d0 00 4a 50 39 06 00 42 3d 02 b9 53 3b 2b 82 82 3d
       0.00019863993 0.047363304 0.0032306318 0.06372484
0003e0 f5 76 50 3d fb b0 da 3c dc 68 d8 3d c6 58 7f 3c
       0.050894696 0.026695719 0.10566875 0.01558513
0003f0 09 06 94 bc a4 22 b8 bd 5b 10 e1 bd e7 98 86 bd
       -0.018069284 -0.08990982 -0.10989448 -0.065721326

fc1.bias f4 [50]
000000 82 b0 36 3d 92 58 f1 3c c6 95 ae 3c 72 c5 e9 bc
       0.044601925 0.029461179 0.021311652 -0.028536532
000010 e6 c7 70 3b 18 0e 88 bd 32 2f 13 be f5 2b 38 bd
       0.0036740243 -0.06643313 -0.14373472 -0.044963796
000020 68 16 42 bd 59 17 22 3d d0 36 cb bd c0 b6 f1 3c
       -0.04738465 0.039573047 -0.09922564 0.029506087
000030 47 08 9f bd ef 7b 5d bd 3b be 6d bd 14 5f 1d 3d
       -0.07765251 -0.05407327 -0.058042746 0.03842075
000040 7a d6 e7 bb 68 63 3d 3c 2a 53 65 3d 30 b8 46 bd
       -0.007075128 0.011559345 0.055987515 -0.0485155
000050 3b ac 0b be 16 1e 2f 3c 68 47 62 bd 57 1d 8d 3d
       -0.1363992 0.010688325 -0.05524388 0.06890362
000060 30 d0 03 3d c7 9d 31 bd 7e d7 81 bb e5 01 27 3d
       0.032180965 -0.04336336 -0.0039624562 0.04077329
000070 74 c3 7f bd ad 75 f3 bd aa 15 d4 bc 73 a9 5c bd
       -0.062442258 -0.11887679 -0.025889236 -0.053872537
000080 60 da 10 bd 4d a5 58 bd 3f f5 32 bd d8 62 89 3d
       -0.03536451 -0.052892018 -0.043690916 0.06708306
000090 a6 54 2d 3c 29 81 d9 bc 01 d0 15 bc d7 9d a7 bb
       0.010579264 -0.026550846 -0.00914383 -0.0051152515
0000a0 ca be f7 bc 10 c2 02 bc f7 40 19 bd 2a e9 2b be
       -0.030242343 -0.007980838 -0.03741547 -0.16788164
0000b0 24 ba 8c bd df 07 a1 3a b9 83 c5 bd ed be c3 bd
       -0.06871441 0.0012285671 -0.09644265 -0.095579006
0000c0 71 d5 21 bc e8 13 8c 3d
       -0.009877549 0.06839734

fc2.weight f4 [10, 50]
000000 1b 54 82 3d 5f 5a f6 bc a2 d9 66 3d 1d 3b 40 3b
       0.06363698 -0.03007239 0.056359895 0.002933211
000010 a1 24 0e be b1 5f 83 3d ce b4 af be 93 56 84 3d
       -0.1388116 0.06414736 -0.3431763 0.06461825
000020 bc 6e 42 be 5e fc 67 be 1a 38 e8 be ed 25 47 be
       -0.18987554 -0.22654864 -0.45355302 -0.19448061
000030 84 49 49 3c b8 bc ae 3e 8e 0a d6 3e c8 56 cc 3e
       0.012285594 0.34128356 0.41804928 0.3990996
000040 c8 72 a0 3e 1d 8b 0a 3e d5 55 a3 bc 73 8d 11 3e
       0.3133757 0.1352963 -0.019938389 0.14214115
000050 06 30 8f be b7 3e fd bd 2c 79 90 bc 08 84 91 be
       -0.27966326 -0.123654775 -0.017635904 -0.28421044
000060 dd 4a e1 bd 6f fb ed be fd 36 2c be 0e cb 90 be
       -0.11000607 -0.4648089 -0.16817851 -0.28279918
000070 c4 04 57 3d ac 46 c8 3e 51 32 26 be e3 79 2a 3e
       0.05249478 0.39116418 -0.16230132 0.16648059
000080 a8 f6 0d 3f 30 a5 ae 3e 90 29 cc bd 3f 35 65 3e
       0.5545449 0.34110403 -0.09968865 0.22383593
000090 c4 09 04 3e d3 d0 0f 3e ea 0c ea bd 11 a2 c3 be
       0.1289435 0.14044504 -0.114282444 -0.38209584
0000a0 03 4e 36 be 5a 5f 13 bf 50 dc 72 3e 0b 30 4b be
       -0.17803197 -0.5756737 0.23716855 -0.19842546
0000b0 40 3d 26 3d b8 8a 9a 3e d0 1a f2 bd e3 5f 53 3d
       0.040585756 0.3018396 -0.1182152 0.051605117
0000c0 20 eb 04 bc 48 e9 fd bd 13 d4 4b 3e e4 4d 90 3e
       -0.008112699 -0.123980105 0.19905119 0.28184426
0000d0 d7 80 9d be 8c ea 83 3e 15 6a 54 3e 65 1d a4 3e
       -0.3076236 0.25764883 0.20743592 0.32053676
0000e0 64 15 63 be a1 82 79 3d 49 57 a0 bd 2d 2e 35 be
       -0.22176129 0.060915593 -0.07829148 -0.17693396
0000f0 ef 3c 08 3f 3a 09 f1 3e 27 f4 0a 3d 99 33 13 be
       0.5321798 0.47077352 0.033924248 -0.14375152
000100 b0 4c 41 3e b4 69 e4 be 4a ef ab 3e d1 e2 94 3c
       0.1887691 -0.44611895 0.33581 0.01817456
000110 a0 59 96 be a7 d2 a7 bd 1f a8 cb be ff 9e 03 3e
       -0.29365253 -0.081944756 -0.39776704 0.12853621
000120 1c eb 8c 3d 57 07 a4 3e 67 cf 50 3e 12 04 62 be
       0.06880781 0.3203685 0.20391618 -0.22071865
000130 09 53 04 bf 2c 2e 2f 3e ed 5f 07 3d 5e 08 83 3d
       -0.516892 0.17107457 0.033050466 0.0639808
000140 b2 03 d0 3e 78 76 32 3e d5 82 06 be 55 73 35 be
       0.4062782 0.17428005 -0.13135846 -0.17719777
000150 f5 b5 99 3e f5 7e 8f 3d 72 97 e8 be 65 82 5c be
       0.30021635 0.07006637 -0.45428044 -0.21534117
000160 f5 cb 9f 3e ac e2 86 3d 8a f6 0f be 24 08 35 3e
       0.31210294 0.06586203 -0.14058891 0.17678887
000170 60 93 84 be 22 30 a8 be e4 25 cc 3e 81 23 32 be
       -0.25893688 -0.32849222 0.39872658 -0.17396356
000180 70 2e 4c bd ea 52 b7 3e 47 89 e6 be 40 79 95 bd
       -0.049848974 0.35805446 -0.4502661 -0.07298517
000190 04 0e 27 be cb 49 51 be d5 7d d7 bd 68 f4 57 be
       -0.1631394 -0.20438306 -0.105220474 -0.21089327
0001a0 0e c1 55 bd 1a 65 f6 3e c3 8d 88 3e ed 5d e8 3d
       -0.052186064 0.4812401 0.26670656 0.1134604
0001b0 a6 07 e5 3e 93 ab 68 3e c4 60 0a be b6 3e ca 3d
       0.44732398 0.227217 -0.13513476 0.098752424
0001c0 4f 65 5d 3e bd 1d de 3e bd 4d 33 be 05 3f 27 3d
       0.21620677 0.43382064 -0.17510124 0.040831584
0001d0 10 e6 81 be 14 ce 22 be 05 f0 5d be 43 cd b6 be
       -0.25370836 -0.15898925 -0.21673591 -0.35703477
0001e0 17 9f 8b 3a 33 ae ae 3e 4d de d7 bd e7 b4 b1 be
       0.0010652271 0.34117278 -0.105404474 -0.3470833
0001f0 8e 71 86 bc a3 9d 54 be 22 44 68 be ba 1f f7 bb
       -0.016411569 -0.20763259 -0.2268224 -0.007541624
000200 47 f8 45 be ae 11 c2 3d 4d f2 6a be c8 45 d9 be
       -0.19332992 0.094760284 -0.22943993 -0.4243605
000210 81 d3 9c 3e 80 da b8 be 82 bf 26 3e 60 d7 75 3e
       0.30630115 -0.36104202 0.16283992 0.2400794
000220 aa 35 53 3c 63 dc a3 be 70 2a 94 3e d7 73 0d 3e
       0.0128912125 -0.3200408 0.28938627 0.1381372
000230 9a 7a fe 3d f4 38 4b 3e 0e f4 39 be 1a 9f 97 bd
       0.12425728 0.19845945 -0.18159506 -0.07403393
000240 98 41 82 3e bd 3b 89 3e 44 bc 8e bd e1 c9 2b 3e
       0.2544067 0.2680339 -0.069695026 0.1677623
000250 19 2a 9f be 33 b1 db 3e 9f 10 70 bd 3f f2 a0 3e
       -0.31086805 0.4290863 -0.0586096 0.3143482
000260 8b fa 9c 3e 74 0b ce bd 12 56 ef bc b2 4c 6f be
       0.306599 -0.10060778 -0.029215846 -0.233691
000270 04 04 2a 3e 9e 55 04 3e ba 39 cb 3d 9d a0 33 3d
       0.16603094 0.12923285 0.0992312 0.043854345
000280 28 1a 18 be 41 88 9e 3e 34 2f de bd 1b 8f 2d bd
       -0.14853728 0.30963328 -0.10848847 -0.042372804
000290 d9 2f 90 bc 57 74 1f be 91 1d d0 bd cc c3 3b 3e
       -0.01760094 -0.15571724 -0.10161889 0.1833641
0002a0 58 b4 8b be 7a 86 ee 3e 70 c3 2b 3e 2c fe 8a 3e
       -0.2728603 0.46586972 0.16773772 0.27147043
0002b0 c5 cb 8d 3c 91 16 e6 bd 4b 39 88 be 51 7c 6f be
       0.017309079 -0.11234773 -0.2660621 -0.23387267
0002c0 7f 53 9f 3e 42 d8 98 be 46 cb 30 3e a4 8c de be
       0.3111839 -0.29852492 0.17265043 -0.43466675
0002d0 07 96 0d bf 67 c2 99 3e c5 e6 a4 be 6e 0a 67 3e
       -0.5530705 0.3003113 -0.32207313 0.22562572
0002e0 2e c7 b9 bd 0a be 6c bc a4 46 19 3d e6 38 a1 3e
       -0.09071194 -0.014449606 0.037420884 0.31488723
0002f0 f2 3b 99 be 73 5c c2 3c 17 35 ca 3e f1 dc dc 3e
       -0.29928547 0.023725724 0.3949363 0.43137315
000300 52 01 8f be 52 19 9c 3e ff f8 d3 bc 58 09 7b be
       -0.27930695 0.30488068 -0.025875567 -0.24515283
000310 cb b8 10 be 7b 71 f9 bd 3b 31 45 be 32 9d b8 3e
       -0.14132993 -0.12179848 -0.19257061 0.3605743
000320 3b 36 ed bd 24 0e c0 bd f2 15 18 bd a8 b5 fd 3d
       -0.11582609 -0.09377697 -0.037130304 0.12388164
000330 fb 80 1a bd 0a f2 55 3e 36 69 8a 3e 3b 70 55 be
       -0.03772066 0.20893112 0.27033395 -0.20843594
000340 db 2a a0 be b3 1f 46 be c7 4f 8e 3e 59 83 f7 bd
       -0.31282696 -0.1934803 0.2779524 -0.120855995
000350 a2 67 c0 3e 81 0b 74 be 3b 08 1b be a3 97 c1 3e
       0.37579066 -0.23832513 -0.15139858 0.37811002
000360 c9 ec 05 bf 4e 07 46 be 20 66 bd bd 8f 0f cd be
       -0.5231443 -0.19338724 -0.092479944 -0.40050933
000370 cd 2a 83 be f4 ce 9f be c6 e5 f4 3e 26 b2 a5 3e
       -0.25618592 -0.3121258 0.47831553 0.3236248
000380 8a fd 59 3e ed fd b3 3e 13 97 44 3e 66 3d 07 3e
       0.21288124 0.35154667 0.19198255 0.13207015
000390 bb 79 ba 3b 7e b8 87 3d cf 92 a1 3e e2 79 58 bd
       0.005690781 0.06626986 0.3155732 -0.05285061
0003a0 a9 db 0f be a8 eb a2 be 83 9c 4c be 0a 45 23 be
       -0.14048637 -0.31820416 -0.1998158 -0.15944305
0003b0 43 9e d2 3d 99 17 5f 3e 5d 78 69 3e 0a 00 ef bd
       0.10284092 0.21786346 0.22799821 -0.11669929
0003c0 7f 2a d8 be 23 a3 d1 3c 30 15 06 3d 26 c6 5c be
       -0.42219922 0.025590485 0.03273505 -0.21559963
0003d0 b3 fb 31 be 8e fa 2a 3e 2a e4 4e be a2 ed 63 be
       -0.17381172 0.16697142 -0.20204225 -0.22258618
0003e0 8c c7 bc 3e 95 a4 25 be 6a b1 50 3e 82 40 a3 3d
       0.36870992 -0.16176064 0.20380178 0.07971288
0003f0 e3 69 85 3c dc a2 2c be 1d ac 66 3d 5e 46 9a bd
       0.016285842 -0.16859001 0.056316484 -0.07532953

fc2.bias f4 [10]
000000 67 57 ce bd 7d c6 68 bd be dc 8e 3c dd 3e 0d bc
       -0.100752644 -0.05682992 0.017439242 -0.008620945
000010 c1 6f 6c ba 54 b4 22 3d 3d c5 81 bd 74 68 aa bb
       -0.0009019338 0.039722756 -0.06336448 -0.00520044
000020 47 92 ab bb 4f d9 ea bd
       -0.0052359435 -0.114672296
