MNIST/snapshots/oe_tune/oe_tune_epoch_4.pt (torch_old, 88724 bytes, 8 tensors)

conv1.weight f4 [10, 1, 5, 5]
-0.009707928 -0.15355712 -0.15866892 -0.11038932 -0.22673158 0.11877681 -0.06536021 -0.14654718
-0.296324 -0.30460504 0.12420839 0.16337544 0.20216624 -0.06309918 -0.07957689 0.029340679
0.18224718 0.27705148 0.50504565 0.2355737 0.0038771245 -0.16072387 -0.07671931 0.04506776
0.0914637 0.0564664 0.45925164 0.009609637 -0.4944727 -0.12911299 0.054955564 0.57005006
0.05246534 -0.42326796 -0.43849406 -0.092296444 0.7895065 -0.21769777 -0.24848077 -0.36327234
0.15895033 0.24091814 0.18898284 -0.13314939 -0.25717056 0.08131436 0.15046386 0.31701544
0.12470343 -0.003135038 -0.2219259 -0.24358241 -0.026689583 0.12814882 0.29140157 -0.15918557
-0.23283434 0.11865844 0.4671175 0.09406599 -0.2887498 0.1402069 0.6454348 0.41948658
-0.33013102 0.027157376 0.35340565 0.51055884 -0.2318074 -0.40843838 0.20779218 0.09696413
-0.07490929 -0.3926876 -0.23677972 0.14167021 0.39315897 0.38011864 0.0072293365 0.2094906
-0.2680192 -0.047269553 0.21258697 0.1371235 0.22818306 -0.23178487 -0.32716587 0.05243636
0.034919433 0.15811594 0.002622154 -0.41913104 -0.37312114 -0.21126626 -0.34312502 -0.011821777
0.011787076 -0.248169 -0.31006137 -0.16523649 0.1841729 -0.070337735 -0.13672945 -0.31064382
-0.4503988 -0.035742488 0.40466726 -0.2559532 -0.3167147 -0.13487436 -0.25561985 0.5943766
0.58843696 0.0012219194 0.15668611 0.020547822 0.29815492 0.4603184 0.31405035 0.017002672
-0.46759987 -0.436927 -0.050926164 -0.05637853 -0.028697545 -0.31764317 -0.6300125 -0.49015486
0.0035585659 0.28914696 -0.33333656 -0.0453303 0.42212838 0.6095904 0.05763803 0.2769222
0.27602398 0.16679963 0.026569452 -0.21592732 0.042812523 -0.07217014 -0.34583652 0.0890294
0.1579109 -0.041921932 -0.011702357 0.06279902 0.24668762 0.25984988 -0.10080864 0.17393163
-0.090957224 -0.10896763 -0.35469514 -0.23285832 -0.20997669 -0.17566662 0.07489969 -0.16224146
-0.23025836 0.025437878 0.049597193 0.10791843 -0.17256907 0.0055620074 -0.107442446 -0.0914382
-0.20064047 -0.12655184 -0.029311817 0.09575611 0.0571596 0.14142862 0.32270607 0.17614117
0.27960518 0.31147632 0.04541676 0.29008955 -0.15682007 -0.14453676 -0.28305984 -0.2745453
-0.23286118 0.14166269 -0.24516049 -0.3324423 -0.18847162 -0.17925522 0.3354914 0.18112126
0.098251946 0.080636956 0.27512345 -0.051466636 0.2994494 0.5369435 0.36933827 0.05003141
-0.2143201 -0.27163026 0.12607573 0.015098029 0.21073888 -0.22898734 -0.2049096 -0.16560379
0.15362106 0.38067225 -0.33041248 -0.28260064 -0.43071115 0.21046959 0.5579509 -0.28820208
-0.27967224 -0.39764124 -0.03636837 0.5815794 -0.5634727 -0.22371857 -0.41164705 -0.22795713
0.35047647 -0.08785576 0.039476357 0.33478668 0.44322532 0.59629834 0.015123698 -0.05654896
0.3570886 0.14613312 0.1556622 -0.042732622 -0.11478163 0.11259316 0.11763441 -0.25328228
-0.38495454 -0.22796647 -0.25320885 -0.35908815 -0.37928784 -0.21441217 -0.50828725 -0.56137776
-0.38526145 0.08971029
00000000: 000e 1fbc 143e 1dbe 1b7a 22be cc13 e2bd
00000010: 532c 68be 4241 f33d 93db 85bd 7710 16be
00000020: c8b7 97be 31f5 9bbe f860 fe3d e44b 273e
00000030: ab04 4f3e 253a 81bd 35f9 a2bd dd5b f03c
00000040: 019f 3a3e b1d9 8d3e ac4a 013f 3b3a 713e
00000050: 5b17 7e3b cc94 24be 031f 9dbd f998 383d
00000060: 5251 bb3d 5049 673d 0823 eb3e bd71 1d3c
00000070: 872b fdbe 3236 04be 1619 613d cdee 113f
00000080: e5e5 563d 94b6 d8be 4b82 e0be eb05 bdbd
00000090: 191d 4a3f 2aec 5ebe be71 7ebe d5fe b9be
000000a0: e0c3 223e 3fb3 763e b884 413e 5058 08be
000000b0: dcab 83be 2588 a63d 3313 1a3e d94f a23e
000000c0: 8364 ff3d 3675 4dbb 8b40 63be ab6d 79be
000000d0: 1da4 dabc 7239 033e 9632 953e 8b01 23be
000000e0: 206c 6ebe 3203 f33d 062a ef3e aba5 c03d
000000f0: 04d7 93be 6692 0f3e 373b 253f f2c6 d63e
00000100: ef06 a9be 2579 de3c 96f1 b43e fcb3 023f
00000110: eb5e 6dbe d61e d1be 79c7 543e 2195 c63d
00000120: 0b6a 99bd 590e c9be 6276 72be ff11 113e
00000130: 224c c93e e99e c23e 12e4 ec3b b484 563e
00000140: d039 89be b89d 41bd 66b0 593e 1a6a 0c3e
00000150: d2a8 693e 0359 6dbe 4982 a7be 82c7 563d
00000160: ae07 0f3d 25e9 213e 72d8 2b3b 5898 d6be
00000170: bc09 bfbe 2f56 58be 15ae afbe 20b0 41bc
00000180: 941e 413c 0420 7ebe 5dc0 9ebe c133 29be
00000190: d297 3c3e 3b0d 90bd ce02 0cbe b50c 9fbe
000001a0: ac9a e6be b766 12bd 8c30 cf3e 4c0c 83be
000001b0: 6e28 a2be 811c 0abe 9be0 82be 1129 183f
000001c0: cea3 163f d028 a03a 5372 203e e853 a83c
000001d0: c3a7 983e daae eb3e 35cb a03e 3049 8b3c
000001e0: 4069 efbe e5b4 dfbe f497 50bd 2ced 66bd
000001f0: 1d17 ebbc 20a2 a2be 8048 21bf 94f5 fabe
00000200: d436 693b 120b 943e 17ab aabe 44ac 39bd
00000210: 3621 d83e 1e0e 1c3f db15 6c3d bfc8 8d3e
00000220: 0453 8d3e 86cd 2a3e 2ea8 d93c 0d1c 5dbe
00000230: 2f5c 2f3d f0cd 93bd 7c11 b1be 0c55 b63d
00000240: 65b3 213e 55b6 2bbd 3ebb 3fbc c69c 803d
00000250: ae9b 7c3e 0b0b 853e c374 cebd 221b 323e
00000260: c847 babd 6c2a dfbd 9a9a b5be 6972 6ebe
00000270: 2104 57be f3e1 33be 0265 993d a022 26be
00000280: d9c8 6bbe 1963 d03c 6d26 4b3d 5604 dd3d
00000290: f2b5 30be 8041 b63b c90a dcbd f343 bbbd
000002a0: b274 4dbe ce96 01be 561f f0bc c81b c43d
000002b0: 2f20 6a3d aad2 103e bb39 a53e 5a5e 343e
000002c0: 6928 8f3e d379 9f3e ed06 3a3d 9e86 943e
000002d0: 7195 20be 7201 14be 38ed 90be 3491 8cbe
000002e0: 2973 6ebe 0610 113e 5a0b 7bbe e135 aabe
000002f0: b4fe 40be ae8e 37be 87c5 ab3e da77 393e
00000300: 5138 c93d fd24 a53d fbdc 8c3e aece 52bd
00000310: 6f51 993e 2175 093f e819 bd3e bced 4c3d
00000320: ba76 5bbe 1f13 8bbe ff19 013e b95d 773c
00000330: efcb 573e a87b 6abe d2d3 51be 0a94 29be
00000340: d74e 1d3e 79e7 c23e d32b a9be 08b1 90be
00000350: 2c86 dcbe 5785 573e dfd5 0e3f 398f 93be
00000360: 3331 8fbe a297 cbbe 00f7 14bd 63e2 143f
00000370: bf3f 10bf 7b16 65be 67c3 d2be 986d 69be
00000380: a771 b33e b8ed b3bd f6b1 213d 2969 ab3e
00000390: 6eee e23e 02a7 183f 63c9 773c e29f 67bd
000003a0: 51d4 b63e eca3 153e e965 1f3e 6708 2fbd
000003b0: a212 ebbd 3e97 e63d 4fea f03d 37ae 81be
000003c0: c318 c5be 0b70 69be 97a4 81be 67da b7be
000003d0: 0432 c2be dd8e 5bbe 1d1f 02bf 74b6 0fbf
000003e0: fd40 c5be 07ba b73d

conv1.bias f4 [10]
0.033964425 -0.6246845 -0.4187338 0.020761838 -0.47452056 -0.36920002 0.20368849 0.13734126
-0.28062475 -0.14663872
00000000: 481e 0b3d 53eb 1fbf 4764 d6be bb14 aa3c
00000010: 5cf4 f2be c907 bdbe b793 503e 30a3 0c3e
00000020: 0cae 8fbe 7628 16be

conv2.weight f4 [20, 10, 5, 5]
0.03730772 0.01109602 -0.16010393 0.04399714 0.12342814 -0.058641966 -0.010942994 -0.13713832
-0.022763027 -0.005165044 -0.053068236 -0.1126448 -0.10761786 0.03704417 0.0023354946 -0.092462115
-0.09720344 -0.050082203 -0.0089996485 -0.015535992 -0.0041584275 0.02285384 0.10050814 0.0034917989
-0.08641217 -0.01406185 -0.2050305 -0.21674506 0.027330643 0.29492524 -0.053619392 -0.22274737
-0.086455606 0.019832456 0.10444806 -0.0675858 -0.09988261 0.052079447 0.041443035 -0.0035989855
-0.09417629 0.09672621 0.17406523 0.017153582 0.0066969297 -0.018231187 0.111179605 0.13991037
0.04456717 0.092527 0.09523076 -0.039835926 -0.009498082 0.04215359 0.12819803 -0.024074676
0.0028655867 0.09538553 0.19354494 0.054120563 0.055735253 0.09721835 0.019867597 0.01426652
-0.016410278 -0.044695724 -0.041015737 -0.12033747 -0.21239863 -0.098138794 0.010696757 -0.078460485
-0.15661903 -0.12759297 -0.079294 0.06229024 -0.051936433 -0.05624973 -0.055086352 -0.07819628
-0.04780353 -0.09315192 -0.11682021 -0.026267989 -0.049878336 -0.016149571 -0.08553394 -0.07155576
-0.05035728 0.03885241 0.11626997 -0.006753171 -0.011309668 0.010131853 0.16836023 0.016802112
0.07258718 0.028086366 0.024101228 0.040955346 0.112744376 -0.055702984 -0.07321854 0.02237872
0.2929508 -0.026654938 -0.08951554 -0.036739632 0.047654856 0.13808434 -0.074688494 -0.023695666
0.03245817 0.062115435 0.078988545 -0.08583032 0.051995862 0.23776256 0.15962243 0.07861342
-0.08757759 -0.027702216 0.055867046 0.047384676 -0.12259794 0.13090834 0.0837704 0.08926912
0.039056417 0.023156898 0.048633598 0.14921424 0.21734734 0.18489797 0.13791947 0.13349923
0.2664547 0.20691189 0.121166855 -0.060627386 -0.059603613 0.1088455 0.02595093 -0.122519344
-0.09935096 -0.07493607 -0.05579275 -0.09572346 -0.04354819 -0.19248495 -0.02373141 0.008188666
-0.0060180495 -0.006293207 0.047794674 0.0057016364 -0.047961846 0.0657275 -0.054396648 -0.025310418
-0.041236546 0.052922886 0.015557671 0.036123224 -0.024897572 0.02219569 -0.020157086 -0.04873618
0.014328852 -0.04445894 -0.00093366246 -0.02074271 0.028162647 0.02405484 -0.027845923 -0.035359766
0.08096131 -0.06777703 -0.081014976 0.032783788 0.024283752 0.04109559 -0.19777527 0.0019120045
0.011319498 -0.07281437 -0.2049637 -0.116583906 -0.016426824 0.04965789 -0.052208968 -0.0059221196
0.096228905 0.04582144 0.021795217 0.20292203 -0.024824586 0.014372931 0.031461272 -0.21805148
-0.012797328 -0.079654746 0.018939633 -0.04457637 -0.08387547 0.02722471 -0.049586266 -0.07833112
-0.07934587 -0.12810037 0.15173197 0.10682678 0.10588385 0.007886994 0.024577789 0.186806
0.06550242 0.13602857 0.06161959 -0.00538711 0.032404765 0.021646038 0.11480602 0.031084387
-0.059357975 0.19858037 -0.013066969 -0.025440276 -0.07376405 -0.034401443 0.022257097 -0.07509964
-0.037390772 -0.11420926 0.017437609 0.11160829 0.04056435 -0.15295908 -0.048671853 0.08399141
0.081351556 -0.09399217 -0.026639208 0.044328563 0.14784741 -0.13048582 -0.103808336 0.015431952
0.11493589 0.026043149 -0.038858756 0.039195135 -0.08843386 -0.009115199 -0.032238 -0.0077662757
00000000: fbcf 183d 15cc 353c 49f2 23be 5836 343d
00000010: e5c7 fc3d 8f32 70bd 3e4a 33bc fd6d 0cbe
00000020: 8779 babc 883f a9bb 145e 59bd 51b2 e6bd
00000030: c166 dcbd a1bb 173d 190f 193b c75c bdbd
00000040: 9912 c7bd ff22 4dbd 4373 13bc ac8a 7ebc
00000050: 6b43 88bb fa37 bb3c 36d7 cd3d aad6 643b
00000060: ddf8 b0bd ac63 66bc 84f3 51be 6bf2 5dbe
00000070: 83e4 df3c 7100 973e 02a0 5bbd e317 64be
00000080: a30f b1bd ad77 a23c dde8 d53d 6d6a 8abd
00000090: 418f ccbd 4251 553d 2cc0 293d f5dc 6bbb
000000a0: 80df c0bd 6418 c63d 283e 323e ab85 8c3c
000000b0: eb71 db3b 9259 95bc 22b2 e33d aa44 0f3e
000000c0: 118c 363d cc7e bd3d 5808 c33d ff2a 23bd
000000d0: d89d 1bbc 3ea9 2c3d 5846 033e 4138 c5bc
000000e0: 91cc 3b3b 7d59 c33d a530 463e 86ad 5d3d
000000f0: a64a 643d 6a1a c73d 5fc1 a23c 1fbe 693c
00000100: d96e 86bc dd12 37bd 1e00 28bd 7e73 f6bd
00000110: 077f 59be fefc c8bd 7341 2f3c e4af a0bd
00000120: bd60 20be bba7 02be e564 a2bd 0d24 7f3d
00000130: 4cbb 54bd 1e66 66bd 3aa2 61bd 5f25 a0bd
00000140: a2cd 43bd 6fc6 bebd 6f3f efbd f72f d7bc
00000150: 3a4d 4cbd 1b4c 84bc 6b2c afbd d48b 92bd
00000160: 6f43 4ebd b423 1f3d f31e ee3d b449 ddbb
00000170: 304c 39bc 1200 263c a066 2c3e 95a4 893c
00000180: 96a8 943d 6115 e63c f06f c53c cbc0 273d
00000190: 86e6 e63d d028 64bd 9af3 95bd 9453 b73c
000001a0: a6fd 953e 755b dabc ec53 b7bd 4c7c 16bd
000001b0: bd31 433d fb65 0d3e 48f6 98bd 6a1d c2bc
000001c0: dcf2 043d c16c 7e3d bfc4 a13d cfc7 afbd
000001d0: 9df9 543d 0778 733e 1074 233e 1300 a13d
000001e0: e15b b3bd c2ef e2bc d8d4 643d 6f16 423d
000001f0: a114 fbbd d60c 063e d18f ab3d bad2 b63d
00000200: 9ff9 1f3d 89b3 bd3c 0634 473d 9ecb 183e
00000210: 4d90 5e3e e555 3d3e c33a 0d3e 06b4 083e
00000220: c06c 883e b6e0 533e 5426 f83d 6c54 78bd
00000230: eb22 74bd 64ea de3d 0b97 d43c 6ceb fabd
00000240: 8478 cbbd 1578 99bd f086 64bd a90a c4bd
00000250: 965f 32bd c61a 45be 6068 c2bc c129 063c
00000260: 0f33 c5bb 3f37 cebb 59c4 433d cbd4 ba3b
00000270: a473 44bd 249c 863d 05cf 5ebd cb57 cfbc
00000280: a7e7 28bd abc5 583d 9ae5 7e3c f2f5 133d
00000290: fef5 cbbc bcd3 b53c 7920 a5bc 979f 47bd
000002a0: 90c3 6a3c 941a 36bd 07c1 74ba 9eec a9bc
000002b0: 5ab5 e63c a80e c53c 221d e4bc 67d5 10bd
000002c0: 0bcf a53d afce 8abd 2eeb a5bd 4b48 063d
000002d0: b8ee c63c d953 283d 9a85 4abe 3a9c fa3a
000002e0: 6a75 393c b31f 95bd 01e2 51be 8bc3 eebd
000002f0: 8c91 86bc 1266 4b3d 12d9 55bd 570e c2bb
00000300: a913 c53d 43af 3b3d e28b b23c cbca 4f3e
00000310: ee5c cbbc 717c 6b3c 89dd 003d e348 5fbe
00000320: e2ab 51bc 0722 a3bd 4a27 9b3c b695 36bd
00000330: e7c6 abbd 5b06 df3c f81a 4bbd 116c a0bd
00000340: 1680 a2bd be2c 03be a05f 1b3e 00c8 da3d
00000350: a2d9 d83d 7338 013c 5c57 c93c 124a 3f3e
00000360: 2226 863d 134b 0b3e d364 7c3d 5b86 b0bb
00000370: dcba 043d 0853 b13c 6b1f eb3d afa4 fe3c
00000380: 5921 73bd a758 4b3e d716 56bc 2068 d0bc
00000390: 9b11 97bd 87e8 0cbd 8454 b63c d7cd 99bd
000003a0: 1127 19bd 8be6 e9bd 51d9 8e3c e392 e43d
000003b0: ce26 263d 4ea1 1cbe 235c 47bd b003 ac3d
000003c0: a59b a63d f87e c0bd 783a dabc de91 353d
000003d0: 5065 173e 139e 05be 7799 d4bd 4cd6 7c3c
000003e0: 8263 eb3d 7158 d53c 5c2a 1fbd 148b 203d
000003f0: d01c b5bd ea57 15bc fe0b 04bd 3e7c febb

conv2.bias f4 [20]
-0.26989013 -0.2627371 -0.15670282 -0.3119197 -0.15523374 -0.042229418 -0.17280822 -0.05410569
-0.19316283 -0.1265806 0.14542885 -0.18098603 -0.26876962 -0.031696945 -0.07574195 -0.33572024
-0.23771866 -0.23439962 -0.122289516 0.13468535
00000000: 0a2f 8abe 7a85 86be b476 20be f0b3 9fbe
00000010: 98f5 1ebe c1f8 2cbd a3f4 30be ee9d 5dbd
00000020: 7acc 45be 589e 01be 4deb 143e 6754 39be
00000030: 2c9c 89be a8d4 01bd 981e 9bbd 86e3 abbe
00000040: 856c 73be 7406 70be ed72 fabd f5ea 093e

fc1.weight f4 [50, 320]
-0.1469718 -0.033908937 -0.03204221 -0.0067406255 -0.011512055 -0.021101845 0.08442992 0.093883656
0.046696834 0.10156086 0.0830529 0.08048227 0.010692751 -0.06107074 0.124486126 0.039300885
0.03258538 0.060789105 -0.015527231 0.060785864 -0.028412027 0.01927854 0.103698954 0.08073739
0.14530462 -0.051908303 0.0019299093 0.027578766 0.015169599 -0.16581912 -0.0812595 -0.034634072
-0.050423574 0.044073816 -0.08493271 -0.080715396 -0.12287079 0.0023644934 0.064912416 0.16253676
0.0453236 0.07503985 -0.032030493 0.019935608 -0.046857655 -0.03571969 0.19868873 0.0036179402
0.0023530696 0.075119786 0.047350254 0.05112757 0.04541294 0.09324456 -0.027164496 -0.02298212
0.011609163 -0.05364364 -0.10464412 -0.038387813 -0.060114764 -0.06653562 -0.10043385 -0.19510712
-0.019606557 -0.04240632 -0.041179825 -0.010197858 -0.11842892 0.041781794 0.004141002 0.014280985
0.02260584 0.01194753 -0.022437595 0.046592362 0.00713538 0.1027971 0.03777656 -0.012354656
-0.114591345 -0.006826169 0.006225295 -0.05236838 -0.040045585 0.11549254 -0.061061002 -0.0075237206
0.056605306 0.07592538 -0.020093579 0.035096288 0.07498013 0.164864 0.13044803 0.05946737
-0.047532752 0.06846542 0.12521818 -0.022477634 0.11371395 0.035155997 -0.10680197 -0.06946064
0.011713062 -0.05972824 0.043849133 -0.041454095 0.13735184 0.018265078 0.02167734 -0.09102302
0.018308757 -0.105912134 0.01367639 0.07370303 0.012991276 -0.051834114 0.06505032 0.09503358
-0.008435297 -0.045631554 -0.04125804 0.037044268 -0.052617837 -0.1177338 0.043378428 -0.022190955
-0.004352881 0.032019857 0.06515962 0.036892265 0.054586153 0.0073626223 0.03968467 -0.017637545
0.051032107 -0.058700286 0.038232565 0.014393607 -0.087011114 -0.098228194 -0.1522355 -0.095865645
-0.10775449 -0.1006547 -0.062743366 0.05404168 0.003826275 0.04591701 0.0752852 -0.058276303
0.09146428 0.035677217 0.04133656 0.060544565 0.1404065 0.16477486 0.1484459 0.016074495
-0.060778014 -0.011067341 -0.076161474 -0.03131574 0.047165256 -0.050988004 0.0740636 -0.07780577
-0.04429008 0.014186661 0.024527147 0.027612528 0.068079665 0.14588806 0.19748303 -0.050715767
-0.10121141 -0.16808873 -0.13772619 -0.067116514 -0.09251487 0.008249272 0.062024117 -0.026008202
0.067385875 0.044203557 -0.008818191 -0.0021305622 0.062218722 0.042726055 0.07564712 0.13744518
-0.020366242 0.08786716 0.037269447 -0.03245812 0.0052425214 0.044275057 0.009073203 0.10317336
0.03853179 -0.13479954 -0.10842016 -0.070073254 0.014154085 -0.03251637 -0.08521632 -0.030138299
-0.039243575 0.04803099 0.11761791 0.14851925 0.10691432 0.04844476 -0.08418225 -0.016012195
-0.052535474 -0.09148403 -3.8469996e-05 -0.094683014 -0.14639951 -0.12608087 -0.19507287 -0.22018513
0.04459439 -0.0012119248 -0.10210181 -0.077758215 0.023689238 -0.066234775 -0.032196432 0.019061664
0.0012912261 0.052798714 0.059036043 -0.04473155 0.06593559 0.027764026 -0.017531263 -0.06474924
0.06598025 0.07591168 -0.035955396 -0.043870214 0.018872513 0.03989139 0.0050889 0.11218477
-0.00537973 -0.012014329 0.042422082 0.032985304 0.048310105 -0.02785401 -0.013822196 -0.12342727
00000000: c77f 16be 19e4 0abd b13e 03bd 77e0 dcbb
00000010: 0f9d 3cbc c7dd acbc 98e9 ac3d 1346 c03d
00000020: 2e45 3f3d 24ff cf3d a417 aa3d e3d3 a43d
00000030: a630 2f3c 5025 7abd 95f2 fe3d f7f9 203d
00000040: 3f78 053d fffd 783d ed65 7ebc 99fa 783d
00000050: 57c0 e8bc 07ee 9d3c 1e60 d43d a559 a53d
00000060: bcca 143e cd9d 54bd 03f5 fc3a ddec e13c
00000070: e989 783c 7dcc 29be 616b a6bd 75dc 0dbd
00000080: f388 4ebd bf86 343d 33f1 adbd 1d4e a5bd
00000090: aea3 fbbd 9ef5 1a3b cdf0 843d 0970 263e
000000a0: 3da5 393d 7eae 993d 6832 03bd 0050 a33c
000000b0: d0ed 3fbd cf4e 12bd 0f75 4b3e f71a 6d3b
000000c0: f535 1a3b 67d8 993d 57f2 413d 256b 513d
000000d0: eb02 3a3d 01f7 be3d 1488 debc 0045 bcbc
000000e0: 5c34 3e3c 6fb9 5bbd a84f d6bd 8a3c 1dbd
000000f0: e63a 76bd d443 88bd 43b0 cdbd 29ca 47be
00000100: ee9d a0bc 40b2 2dbd 2dac 28bd eb14 27bc
00000110: dd8a f2bd 6323 2b3d 3eb1 873b cbfa 693c
00000120: e22f b93c 93bf 433c 0ccf b7bc a2d7 3e3d
00000130: e8cf e93b 4987 d23d 98bb 1a3d 2f6b 4abc
00000140: deae eabd 0eae dfbb 8ffd cb3b 3a80 56bd
00000150: d706 24bd 5a87 ec3d 1a1b 7abd 8b89 f6bb
00000160: f7da 673d c47e 9b3d 4a9b a4bc 20c1 0f3d
00000170: 2f8f 993d 1cd2 283e 2b94 053e 0f94 733d
00000180: b4b1 42bd 9937 8c3d 3239 003e 0423 b8bc
00000190: dce2 e83d bcff 0f3d feba dabd 6141 8ebd
000001a0: 25e8 3f3c 99a5 74bd 269b 333d c5cb 29bd
000001b0: f6a5 0c3e a5a0 953c ad94 b13c 476a babd
000001c0: 3ffc 953c 76e8 d8bd f012 603c 9df1 963d
000001d0: 5cd9 543c 0250 54bd 1a39 853d f7a0 c23d
000001e0: 3334 0abc 27e8 3abd 31fe 28bd bbbb 173d
000001f0: cd85 57bd 6b1e f1bd 94ad 313d cec9 b5bc
00000200: 9da2 8ebb 4127 033d 6872 853d 581c 173d
00000210: bb95 5f3d 2742 f13b 648c 223d 9d7c 90bc
00000220: 0b07 513d b66f 70bd c099 1c3d 2ad3 6b3c
00000230: e232 b2bd dd2b c9bd 9fe3 1bbe 3555 c4bd
00000240: 63ae dcbd 0d24 cebd 987f 80bd cf5a 5d3d
00000250: 3ec2 7a3b 7a13 3c3d 202f 9a3d 22b3 6ebd
00000260: a051 bb3d 4622 123d 8650 293d 94fd 773d
00000270: b9c6 0f3e beba 283e 3402 183e a9ae 833c
00000280: 5ef2 78bd cb53 35bc 8cfa 9bbd ef44 00bd
00000290: 5b30 413d ccd8 50bd a8ae 973d a258 9fbd
000002a0: 8469 35bd 2b6f 683c 28ed c83c ab33 e23c
000002b0: 5a6d 8b3d ae63 153e fe38 4a3e 56bb 4fbd
000002c0: ed47 cfbd 741f 2cbe 1808 0dbe 6274 89bd
000002d0: 7078 bdbd f427 073c 000d 7e3d 270f d5bc
000002e0: 9b01 8a3d ca0e 353d 2c7a 10bc e7a0 0bbb
000002f0: 0fd9 7e3d 8401 2f3d e1ec 9a3d 6ebe 0c3e
00000300: 1bd7 a6bc b3f3 b33d d9a7 183d cef2 04bd
00000310: 75c9 ab3b c359 353d c6a7 143c 8e4c d33d
00000320: 83d3 1d3d e408 0abe 640b debd 9182 8fbd
00000330: 89e6 673c e32f 05bd e585 aebd 98e4 f6bc
00000340: dfbd 20bd 25bc 443d a9e1 f03d 6e15 183e
00000350: e5f5 da3d 036e 463d be67 acbd 022c 83bc
00000360: 702f 57bd fb5b bbbd d85a 21b8 2be9 c1bd
00000370: c1e9 15be 581b 01be 2fc1 47be 3678 61be
00000380: 9ba8 363d 73d9 9eba c11a d1bd b33f 9fbd
00000390: ef0f c23c 19a6 87bd 68e0 03bd 3527 9c3c
000003a0: 5c3e a93a 7743 583d c7cf 713d 6e38 37bd
000003b0: 3d09 873d 6271 e33c b99d 8fbc 409b 84bd
000003c0: a720 873d 9577 9b3d f745 13bd 41b1 33bd
000003d0: 879a 9a3c 2765 233d cac0 a63b 21c1 e53d
000003e0: 7248 b0bb c0d7 44bc c7c2 2d3d 991b 073d
000003f0: d1e0 453d 182e e4bc 7e76 62bc 70c7 fcbd

fc1.bias f4 [50]
0.032972783 0.019254504 0.018345844 0.023592813 0.011542755 0.0070364205 -0.11934464 -0.07853465
-0.028770395 0.0396209 -0.049722463 0.0042587775 -0.051672116 -0.037447587 -0.012270818 0.05277017
0.0061438666 -0.014398248 0.06670884 -0.051973492 -0.089436725 -0.037547696 0.002729254 0.08051353
0.06692165 0.028415771 -0.008266291 0.07615008 -0.035768244 -0.09406619 0.032335963 0.0024149842
0.055808295 -0.106501065 -0.043320823 0.037459362 -0.016188243 -0.009640681 0.059279807 -0.039240334
0.01026557 -0.10009419 0.0043365625 -0.17284894 0.0024201474 0.016596017 -0.0678963 -0.1062702
-0.0008564279 0.015940944
00000000: 780e 073d 9fbb 9d3c 064a 963c b745 c13c
00000010: d31d 3d3c c691 e63b f66a f4bd c6d6 a0bd
00000020: e4af ebbc 8649 223d c8a9 4bbd 378d 8b3b
00000030: 24a6 53bd a462 19bd 8b0b 49bc 8925 583d
00000040: 7d52 c93b a1e6 6bbc a59e 883d 28e2 54bd
00000050: 9a2a b7bd 9dcb 19bd 49dd 323b 47e4 a43d
00000060: 380e 893d 31c8 e83c 566f 07bc 93f4 9b3d
00000070: b981 12bd c6a5 c0bd b772 043d b644 1e3b
00000080: 3d97 643d 3b1d dabd 2d71 31bd fd6e 193d
00000090: 359d 84bc f2f3 1dbc 62cf 723d 79ba 20bd
000000a0: ec30 283c 2ffe ccbd b919 8e3b 50ff 30be
000000b0: 569b 1e3b 5ff4 873c 370d 8bbd 31a4 d9bd
000000c0: e781 60ba 9596 823c

fc2.weight f4 [10, 50]
0.01738961 -0.043648377 0.06403559 0.044233818 -0.20008744 -0.08920601 -0.40692812 0.011699475
-0.19106933 -0.21159084 -0.40575066 -0.16300693 0.15830624 0.33279306 0.37251875 0.30677864
0.21098267 0.16760783 0.08624527 0.18605298 -0.14300713 -0.10415257 0.06622109 -0.26463398
-0.21266425 -0.4269098 -0.13901153 -0.3302785 0.09522194 0.42975232 -0.263101 -0.054292023
0.53776294 0.40015075 -0.11204099 0.21475786 -0.038742002 0.02880089 0.12283677 -0.28582427
-0.30464596 -0.5064547 0.19757085 0.083145216 0.1661578 0.32180387 -0.14322625 0.069836564
-0.08003277 -0.009956209 0.17365563 0.24261165 -0.2403347 0.3558148 0.056673966 0.3195578
-0.2823454 -0.03146876 -0.089685805 -0.20112927 0.43114296 0.3660918 0.023252243 -0.073705606
0.013902258 -0.4994728 0.26546595 0.17259292 -0.39738744 -0.18686163 -0.28267837 0.1286982
0.11705031 0.22190277 0.22973782 -0.26490152 -0.545353 0.36587197 0.11931847 0.14160356
0.2920664 0.050460864 -0.31009507 -0.08427479 0.42238557 0.04336345 -0.47047883 -0.21317992
0.20314056 0.008545762 -0.18302262 0.12323794 -0.2747287 -0.30527404 0.4946883 -0.20030163
-0.11097049 0.5050784 -0.3618289 0.09550708 -0.34254783 -0.3404937 -0.16060455 -0.17395136
0.08288492 0.47899857 0.24248637 -0.19107567 0.5001834 0.2524309 -0.14998044 0.09563097
0.06497557 0.33834785 -0.013697405 0.08390565 -0.2012693 -0.20144992 -0.24612272 -0.30838358
-0.13549191 0.31368285 -0.13241419 -0.2534741 -0.16362795 -0.08771056 -0.19372669 0.19168477
-0.29992706 0.065652065 -0.041421976 -0.0874545 0.2449353 -0.3888316 -0.020942822 0.33276546
0.23104388 -0.18183449 0.09777006 -0.07238457 0.2254776 0.21682858 -0.22015911 -0.10610944
0.21836992 0.17650563 -0.05701372 0.123844594 -0.36637217 0.6352372 -0.072633244 0.34806794
0.19798294 -0.19307397 -0.13656275 -0.18190171 0.21752767 0.29468885 -0.031133426 -0.07815761
-0.08645096 0.41598675 -0.20214427 -0.075733244 -0.021577084 0.0057709436 -0.09755638 0.091664664
-0.23596796 0.5127492 0.20034419 0.29487532 -0.09660506 -0.26422203 -0.21317056 -0.3049823
0.23702294 -0.4349204 0.15363312 -0.40859464 -0.5095807 0.29950792 -0.29818195 0.11800509
0.07941187 -0.08004618 0.11720824 0.34299228 -0.24734026 0.20166741 0.42423445 0.51201093
-0.25241068 0.20379372 -0.103905186 0.017781833 -0.17002524 -0.19463249 -0.22461987 0.28646263
-0.15785696 0.12068043 0.004239958 0.24086367 0.03096796 0.20310791 0.15951009 -0.2245249
-0.24740514 -0.059731994 0.3233729 -0.11590222 0.3426301 -0.21962193 -0.12758647 0.32449204
-0.4414783 -0.07753796 -0.07563261 -0.34856325 -0.38542557 -0.24231246 0.41100305 0.24110578
0.4231408 0.42664427 0.17362654 0.1558205 -0.0132377865 -0.009577898 0.2399815 0.13841008
-0.07903918 -0.23514281 -0.30778778 -0.20653142 0.061300937 0.12488048 0.21826024 -0.093512096
-0.3865665 -0.098352574 -0.03448393 -0.23247872 -0.28563187 0.17208709 -0.21311267 -0.1453034
0.43763945 -0.20076874 0.30903092 -0.028675511 -0.22654434 -0.26717734 0.26744345 -0.0051157014
00000000: a874 8e3c a4c8 32bd 1725 833d 852e 353d
00000010: b9e3 4cbe a4b1 b6bd e258 d0be 28af 3f3c
00000020: aea7 43be 45ab 58be 8dbe cfbe 4aeb 26be
00000030: 081b 223e da63 aa3e c7ba be3e 1712 9d3e
00000040: d70b 583e 63a1 2b3e 5ca1 b03d ac84 3e3e
00000050: 7670 12be f14d d5bd ec9e 873d 1b7e 87be
00000060: a8c4 59be ec93 dabe 0a59 0ebe 431a a9be
00000070: b803 c33d 7f08 dc3e 2db5 86be 5061 5ebd
00000080: d5aa 093f 8fe0 cc3e bf75 e5bd 7ce9 5b3e
00000090: efaf 1ebd d8ef eb3c d891 fb3d 8f57 92be
000000a0: 8efa 9bbe 04a7 01bf 0350 4a3e 0a48 aa3d
000000b0: 4525 2a3e 7ac3 a43e e7a9 12be 7906 8f3d
000000c0: 39e8 a3bd 5e1f 23bc c8d2 313e 306f 783e
000000d0: 4d1a 76be 5c2d b63e f622 683d 149d a33e
000000e0: 948f 90be 63e5 00bd 31ad b7bd d5f4 4dbe
000000f0: c5be dc3e 6270 bb3e 7d7b be3c f7f2 96bd
00000100: 4cc6 633c e6ba ffbe 27eb 873e 33bc 303e
00000110: 5e76 cbbe a858 3fbe 38bb 90be 76c9 033e
00000120: 13b8 ef3d 7b3a 633e 6440 6b3e 2ca1 87be
00000130: 419c 0bbf 9253 bb3e 3e5d f43d 8600 113e
00000140: ba89 953e 0db0 4e3d c8c4 9ebe 4398 acbd
00000150: ec42 d83e df9d 313d 9ae2 f0be d64b 5abe
00000160: 1404 503e 8603 0c3c 486a 3bbe 2c64 fc3d
00000170: 3da9 8cbe e14c 9cbe c947 fd3e df1b 4dbe
00000180: 7f44 e3bd d14c 013f a341 b9be 3799 c33d
00000190: 6e62 afbe 3155 aebe 8575 24be 4e20 32be
000001a0: 92bf a93d 4d3f f53e 594e 783e 57a9 43be
000001b0: 050c 003f 9f3e 813e 7994 19be 2cda c33d
000001c0: e911 853d ee3b ad3e 156b 60bc bad6 ab3d
000001d0: 8a19 4ebe e348 4ebe 9807 7cbe 74e4 9dbe
000001e0: 64be 0abe 0a9b a03e 9697 07be 5bc7 81be
000001f0: 168e 27be 98a1 b3bd 4a60 46be 0349 443e
00000200: 0a90 99be 9774 863d 17aa 29bd 581b b3bd
00000210: 52d0 7a3e ef14 c7be 4890 abbc 3c60 aa3e
00000220: c496 6c3e d232 3abe ab3b c83d 5d3e 94bd
00000230: 9ae3 663e 5008 5e3e 6471 61be e84f d9bd
00000240: 5d9c 5f3e e4bd 343e 3887 69bd 3ca2 fd3d
00000250: 2295 bbbe e89e 223f bdc0 94bd f635 b23e
00000260: 0abc 4a3e 2fb5 45be 1bd7 0bbe 7144 3abe
00000270: 93bf 5e3e 75e1 963e 870b ffbc 1911 a0bd
00000280: 330d b1bd 37fc d43e e8fe 4ebe 081a 9bbd
00000290: 6dc2 b0bc 2f1a bd3b a4cb c7bd afba bb3d
000002a0: 96a1 71be 8843 033f 0727 4d3e e6f9 963e
000002b0: e0d8 c5bd 1c48 87be 6249 5abe a426 9cbe
000002c0: 24b6 723e e3ad debe 0052 1d3e 5133 d1be
000002d0: e173 02bf 1a59 993e 4eab 98be a7ac f13d
000002e0: b1a2 a23d 40ef a3bd e00a f03d af9c af3e
000002f0: c446 7dbe e781 4e3e 4235 d93e 2613 033f
00000300: f93b 81be 4daf 503e 3ecc d4bd 35ab 913c
00000310: 191b 2ebe bd4d 47be c002 66be 3bab 923e
00000320: 41a5 21be 4d27 f73d 58ef 8a3b f7a4 763e
00000330: 85b0 fd3c 85fb 4f3e 9d56 233e dbe9 65be
00000340: c657 7dbe 89a9 74bd 2291 a53e 255e edbd
00000350: 366d af3e 92e4 60be 07a6 02be d223 a63e
00000360: 7209 e2be 39cc 9ebd 45e5 9abd e276 b2be
00000370: 8056 c5be c220 78be fe6e d23e 6fe4 763e
00000380: e9a5 d83e 1e71 da3e 28cb 313e 698f 1f3e
00000390: 4de3 58bc 9eec 1cbc b6bd 753e 5fbb 0d3e
000003a0: 4bdf a1bd 47c9 70be 5c96 9dbe f97c 53be
000003b0: b116 7b3d 56c1 ff3d 9d7f 5f3e 4583 bfbd
000003c0: 0bec c5be 136d c9bd 053f 0dbd e70e 6ebe
000003d0: 573e 92be 9937 303e 353a 5abe 6aca 14be
000003e0: 4712 e03e 5296 4dbe 4d39 9e3e e8e8 eabc
000003f0: 3dfb 67be 78cb 88be 59ee 883e 9da1 a7bb

fc2.bias f4 [10]
-0.08211817 -0.02967305 0.0062186494 0.024209393 -0.08333036 0.023651414 -0.066926755 0.044012774
-0.028105576 -0.10635861
00000000: 922d a8bd e514 f3bc d0c5 cb3b c752 c63c
00000010: 1ca9 aabd 9cc0 c13c e510 89bd bd46 343d
00000020: aa3d e6bc 8bd2 d9bd
